PPO/weight/run2/ppo_crit_model153.pth (torch, 73900 bytes, 5 tensors)

shared_1.weight f4 [128, 8]
-0.075725675 0.21609084 -0.22603258 -0.4618632 -0.12486339 -0.09856011 0.03665303 0.30134946
-0.2050193 0.17114219 0.3661969 -0.36066976 -0.023985367 -0.2228433 0.11710462 0.09922337
-0.1311656 -0.16134192 0.06402491 0.16902547 -0.07015092 -0.05403602 0.10654236 -0.1352563
-0.30153182 0.23349138 -0.17788087 -0.31493562 -0.04673777 0.16765228 0.46512204 0.43109393
0.100384206 -0.28052038 0.01937168 0.2264911 0.20146285 0.084090374 -0.09393791 -0.31733882
0.25774196 -0.009921587 0.021681773 0.32469696 0.2211302 -0.17583656 0.24754745 0.2035389
0.30634028 -0.15525638 -0.26549086 -0.09907979 -0.27177206 0.17425984 -0.1894492 -0.26215893
0.30506337 -0.37097064 -0.2092729 -0.08023245 -0.19726251 -0.13894546 0.0018158313 0.2168208
0.09743415 0.26518086 -0.4087624 0.107365504 0.38898236 -0.20183189 -0.092873596 -0.0013763158
0.0005632986 -0.41344345 -0.055479854 0.28979748 -0.2514924 0.15308508 -0.054488074 -0.3971874
-0.009687599 0.27434978 -0.37995076 -0.057530783 0.2998978 0.041857004 0.2341049 0.47455177
-0.29263714 0.28788376 -0.07063071 0.2228951 0.15443306 0.4262494 -0.06260639 -0.07355395
0.12511946 0.002590131 -0.13495605 -0.32341176 0.3387414 -0.21143201 0.28807893 0.2756164
-0.091581635 0.20700608 -0.18688627 0.06724638 0.3223961 0.0555017 0.021806056 -0.27735874
0.28521442 -0.24991119 0.16392589 -0.18566084 -0.028127251 0.4213163 -0.1764345 0.1714977
-0.29644984 0.374523 0.040292524 -0.30347493 -0.2453079 -0.40347868 -0.14242151 -0.24364334
0.108365335 -0.15255465 -0.23171532 0.22077723 -0.31087038 0.014223868 0.1792011 -0.025913928
-0.07593769 0.23101006 -0.069431745 0.14797097 0.08974419 -0.21307698 0.17882472 0.15571211
0.30661422 0.3061039 0.19357693 -0.4232704 -0.36630908 0.064807095 0.4005618 0.22812502
-0.29950935 0.2172402 -0.020047287 -0.31951687 -0.11941261 -0.2459675 0.29826152 -0.1680562
0.16088365 -0.39103767 0.034414 -0.11776203 0.051515643 0.10926333 -0.42226213 -0.120757915
-0.036207084 0.37562346 0.2834585 -0.48807687 0.13539569 -0.3309804 0.2953351 0.11835909
0.22665522 -0.24270691 0.056610573 0.0021139716 0.20580293 -0.23366863 0.25659856 0.00809375
-0.32590583 0.24739231 -0.29150072 -0.27260157 0.15663378 -0.10937921 0.00703819 0.13090363
-0.4176324 0.039378434 -0.28064814 -0.3879899 -0.015874784 0.35515517 0.16676664 0.43147415
-0.2591074 -0.36215958 -0.21101953 0.06928681 0.34380597 0.01945647 0.16773231 0.41045132
0.29369077 0.4130479 0.09329972 -0.40939477 0.30479437 0.019099373 0.45989347 -0.17601198
-0.2607112 -0.008033348 -0.35933623 -0.23769337 0.12776044 -0.18973356 0.23670171 0.21843012
-0.13742238 0.2745604 0.27301788 -0.09349104 0.13138957 0.3517971 -0.2331738 0.08791709
0.33147708 -0.027521903 -0.24126434 -0.011314385 -0.18869464 0.10658791 -0.15323816 -0.09392694
-0.121642314 -0.43346477 0.18383768 0.28725532 0.08232179 0.026198797 -0.07781173 -0.21943061
-0.28392094 0.37349764 0.17663999 -0.40578657 -0.09731298 0.34652564 0.4183327 -0.026729468
00000000: 1016 9bbd eb46 5d3e 1675 67be 5579 ecbe
00000010: 61b8 ffbd e2d9 c9bd 7d21 163d 7a4a 9a3e
00000020: 94f0 51be e63f 2f3e 297e bb3e b5a9 b8be
00000030: f67c c4bc 0931 64be 8cd4 ef3d 9f35 cb3d
00000040: 4650 06be d136 25be 7e1f 833d 0315 2d3e
00000050: 49ab 8fbd e054 5dbd e132 da3d a180 0abe
00000060: 6162 9abe 5d18 6f3e 6726 36be 3e3f a1be
00000070: 1b70 3fbd 0aad 2b3e 7a24 ee3e 58b8 dc3e
00000080: 3c96 cd3d 5ea0 8fbe 5cb1 9e3c 48ed 673e
00000090: 474c 4e3e 9337 ac3d 8562 c0bd 3c7a a2be
000000a0: c1f6 833e 278e 22bc f99d b13c ae3e a63e
000000b0: f56f 623e 800e 34be 147d 7d3e 806c 503e
000000c0: a2d8 9c3e 87fb 1ebe 6bee 87be 58ea cabd
000000d0: b525 8bbe 2c71 323e f9fe 41be b239 86be
000000e0: 4431 9c3e ddef bdbe a34b 56be e950 a4bd
000000f0: 2fff 49be b847 0ebe 3001 ee3a 4606 5e3e
00000100: 8e8b c73d c9c5 873e 4e49 d1be 72e2 db3d
00000110: b228 c73e 05ad 4ebe 8334 bebd 7f65 b4ba
00000120: 54aa 133a dcae d3be d83e 63bd 5660 943e
00000130: 9dc3 80be 56c2 1c3e e32e 5fbd 265c cbbe
00000140: bcb8 1ebc 9377 8c3e e888 c2be 66a5 6bbd
00000150: 348c 993e 4072 2b3d 32b9 6f3e 73f8 f23e
00000160: 89d4 95be 8065 933e d5a6 90bd 9d3e 643e
00000170: b323 1e3e 5d3d da3e c737 80bd 74a3 96bd
00000180: 511f 003e 30bf 293b eb31 0abe 3a96 a5be
00000190: 836f ad3e a281 58be 157f 933e 981d 8d3e
000001a0: 278f bbbd 67f9 533e 1d5f 3fbe 78b8 893d
000001b0: 1a11 a53e c055 633d 9da2 b23c f701 8ebe
000001c0: a007 923e b8e8 7fbe 30dc 273e e01d 3ebe
000001d0: 1f6b e6bc c5b6 d73e 3fab 34be 189d 2f3e
000001e0: 46c8 97be 7bc1 bf3e c609 253d 1161 9bbe
000001f0: fe31 7bbe c294 cebe f2d6 11be a47d 79be
00000200: a5ee dd3d 4937 1cbe c846 6dbe 6d13 623e
00000210: 672a 9fbe 3a0b 693c 7e80 373e 7249 d4bc
00000220: 3885 9bbd e78d 6c3e 3b32 8ebd b485 173e
00000230: cdcb b73d da30 5abe d41d 373e ff72 1f3e
00000240: 8afc 9c3e a6b9 9c3e 0839 463e e6b6 d8be
00000250: dd8c bbbe 95b9 843d 7016 cd3e 9b99 693e
00000260: 4a59 99be 3774 5e3e 353a a4bc b797 a3be
00000270: 998e f4bd e8de 7bbe bcb5 983e ed16 2cbe
00000280: afbe 243e 1736 c8be b2f5 0c3d 382d f1bd
00000290: 1102 533d 74c5 df3d be32 d8be ed4f f7bd
000002a0: e14d 14bd b851 c03e 7921 913e 36e5 f9be
000002b0: 2ba5 0a3e 4376 a9be 2a36 973e 4066 f23d
000002c0: 4e18 683e 2988 78be 7de0 673d 8f8a 0a3b
000002d0: 01be 523e d446 6fbe e360 833e a69b 043c
000002e0: 21dd a6be 6954 7d3e 953f 95be 6f92 8bbe
000002f0: 9b64 203e 3502 e0bd 9ea0 e63b 9a0b 063e
00000300: ead3 d5be 484b 213d 1db1 8fbe 9da6 c6be
00000310: d60b 82bc e6d6 b53e e0c4 2a3e 2eea dc3e
00000320: baa9 84be fb6c b9be 8115 58be 3ee6 8d3d
00000330: 5607 b03e 2d63 9f3c 05c2 2b3e ad26 d23e
00000340: a35e 963e 047b d33e ec13 bf3d 319c d1be
00000350: 020e 9c3e 4a76 9c3c 2877 eb3e 7c3c 34be
00000360: f07b 85be 4e9e 03bc ebfa b7be e465 73be
00000370: a2d3 023e 8449 42be ef61 723e 25ac 5f3e
00000380: 74b8 0cbe 2e93 8c3e 00c9 8b3e 3b78 bfbd
00000390: fd8a 063e c01e b43e 1dc5 6ebe e00d b43d
000003a0: 5db7 a93e 9d75 e1bc 000e 77be f85f 39bc
000003b0: 2b39 41be c34a da3d 77ea 1cbe c45c c0bd
000003c0: 9b1f f9bd 18ef ddbe f23f 3c3e 2113 933e
000003d0: 5498 a83d dc9e d63c c25b 9fbd 6bb2 60be
000003e0: 165e 91be 153b bf3e 1de1 343e 42c3 cfbe
000003f0: 074c c7bd cf6b b13e b42f d63e c2f7 dabc

shared_1.bias f4 [128]
0.25242648 -0.16197726 -0.13634396 -0.12524046 -0.16241677 -0.4279077 -0.33809367 -0.42953563
0.23840359 -0.07880342 0.22779717 0.24262542 0.04734588 -0.31452882 0.30191627 -0.15203542
-0.2348761 0.3862236 0.075468324 0.41388994 -0.49143213 0.10253339 -0.28649858 0.426027
0.34813505 0.32989725 -0.14738482 0.052677993 0.37901378 -0.36323425 -0.5558487 -0.13513036
-0.044402853 -0.36780307 -0.26685798 0.178813 -0.0023998378 -0.14925164 0.30933243 -0.24078049
0.11472887 0.2968066 0.037559636 -0.27001002 0.3384715 -0.2820425 0.39165652 -0.45391592
0.36220506 -0.15784398 0.25487667 0.06784075 -0.4306521 -0.41575295 -0.38138482 0.21298559
0.058165424 -0.4207633 -0.50158775 -0.30455545 -0.09255773 0.17079091 0.27088362 -0.44886613
-0.09286816 0.14394978 -0.21194144 -0.22681642 -0.07583781 0.30292568 0.23291673 0.2864414
-0.16941373 -0.36254144 0.13340046 0.2950763 0.19355503 0.30948702 -0.4658711 0.16592492
0.39984825 -0.43697894 0.42116952 0.34469277 -0.37965313 0.0725399 -0.40859574 -0.2950341
-0.37595245 0.38162777 0.2380892 -0.3351319 -0.24317108 -0.10938238 -0.07294728 -0.2999144
0.43184322 0.47226575 -0.35071912 -0.06929419 0.42762446 0.004352229 -0.17695442 0.27764654
0.3251972 0.017179845 0.26026997 -0.47495252 -0.14146352 0.3459338 -0.15346067 -0.4255091
-0.48345637 0.038476054 -0.42804733 -0.34512767 0.24850087 -0.26908666 -0.32286486 0.007879217
-0.10329721 0.24009992 0.38573334 -0.30885574 0.35689503 -0.22720702 0.27894974 -0.37764758
00000000: 0b3e 813e 5edd 25be c09d 0bbe 093f 00be
00000010: 9550 26be b816 dbbe 9d1a adbe 18ec dbbe
00000020: 1220 743e b063 a1bd a943 693e cc72 783e
00000030: c1ed 413d ec09 a1be c594 9a3e 2caf 1bbe
00000040: 5c83 70be 1abf c53e 238f 9a3d 62e9 d33e
00000050: fe9c fbbe 07fd d13d f1af 92be 3620 da3e
00000060: c23e b23e 4be8 a83e 0cec 16be e1c4 573d
00000070: 180e c23e d7f9 b9be 1a4c 0ebf 9d5f 0abe
00000080: c4df 35bd af50 bcbe 9ca1 88be c11a 373e
00000090: 9946 1dbb 6cd5 18be d260 9e3e 298f 76be
000000a0: f8f6 ea3d 09f7 973e 22d8 193d c13e 8abe
000000b0: 234c ad3e e067 90be 3487 c83e ab67 e8be
000000c0: f172 b93e daa1 21be 327f 823e 17f0 8a3d
000000d0: 6f7e dcbe 92dd d4be df44 c3be e518 5a3e
000000e0: de3e 6e3d 4a6e d7be 0e68 00bf b1ee 9bbe
000000f0: e88e bdbd d0e3 2e3e 42b1 8a3e c8d1 e5be
00000100: a931 bebd 9267 133e 2d07 59be 9042 68be
00000110: db50 9bbd 1319 9b3e b981 6e3e 72a8 923e
00000120: cb7a 2dbe 089f b9be 219a 083e 3e14 973e
00000130: 4a33 463e 1575 9e3e a886 eebe 39e8 293e
00000140: e9b8 cc3e b4bb dfbe 88a3 d73e 927b b03e
00000150: e561 c2be cd8f 943d 7633 d1be b60e 97be
00000160: d77c c0be b764 c33e a8cd 733e 6996 abbe
00000170: d701 79be df03 e0bd 6265 95bd 618e 99be
00000180: 8e1a dd3e d1cc f13e 7591 b3be 1dea 8dbd
00000190: 98f1 da3e 259d 8e3b 8a33 35be b027 8e3e
000001a0: 3f80 a63e bfbc 8c3c 1b42 853e fa2c f3be
000001b0: d0db 10be 3c1e b13e cb24 1dbe 54dc d9be
000001c0: 9887 f7be 1199 1d3d 0529 dbbe 93b4 b0be
000001d0: 0377 7e3e bac5 89be 8b4e a5be d517 013c
000001e0: 7d8d d3bd c1dc 753e d77e c53e 5722 9ebe
000001f0: f2ba b63e f5a8 68be 80d2 8e3e 065b c1be

shared_2.weight f4 [128, 128]
0.063737385 0.033514317 0.0016313315 0.0563862 -0.02472964 -0.17563404 -0.035325173 -0.013539581
0.090620585 -0.07365941 -0.01893165 0.0033176837 0.05538989 0.008745848 0.17032123 0.105011486
-0.16219303 0.03260166 0.038868032 0.023944719 -0.064106904 0.06970966 -0.119224705 0.15211838
0.15984392 0.13901937 0.016524227 0.16908921 0.11796109 -0.06347018 -0.1252849 0.13789392
-0.06097081 -0.14169595 -0.16012137 0.107601635 0.011083097 -0.013953719 0.024426688 -0.09149213
0.05823007 0.07144136 0.10913481 0.009171219 0.0337958 -0.13614435 0.036989223 -0.02676292
0.13340585 -0.09287543 0.06514899 0.12565628 -0.08364368 -0.003787166 -0.06713179 0.17390838
0.045048337 -0.113434024 -0.119813316 0.012289617 0.12465947 0.014443317 0.1892448 -0.017123709
0.09033393 0.042767964 -0.11889956 0.032458935 0.16314013 0.19921671 0.073253 0.17376657
-0.16337438 -0.13404104 0.032941055 0.19387223 0.049164485 0.036017127 -0.05511143 0.11939406
0.15818802 -0.14919579 0.029334739 0.05887443 -0.079260215 0.0768254 -0.01586544 -0.18423077
-0.16525654 0.0762129 0.08598616 -0.16641991 -0.017354777 0.06044443 -0.02845341 -0.08506279
0.1291549 0.12932947 0.100736156 0.091879 0.047372103 0.14841922 -0.06220409 0.124378726
0.17344657 -0.08100763 0.11434738 -0.08510196 -0.16159831 0.044276357 0.11374729 -0.08812844
-0.16656488 0.025287427 -0.16572922 -0.11125902 -0.02952268 0.06825503 -0.0771403 -0.006589605
0.10711366 0.1568337 0.03030466 -0.14658992 0.15738896 0.09586991 0.023567418 -0.028140428
-0.11055511 -0.12934172 0.13270804 -0.053618185 0.03078283 0.11389054 0.06084351 0.10015807
-0.040705495 0.15749092 0.0355905 -0.035558414 -0.09908032 0.098031744 -0.06888266 -0.021059003
0.14671673 -0.120544516 -0.12405616 -0.056124363 0.1191748 -0.1644005 0.08992342 -0.03253485
-0.10475776 -0.03634123 -0.11316778 -0.09342731 -0.12714335 0.105180025 0.010492438 -0.022730637
0.03249509 0.1653774 0.029036352 -0.06493903 -0.04290073 0.01689268 -0.059530783 0.1111763
-0.0033643025 -0.12447797 -0.0051298533 -0.025312273 -0.15255113 0.1563295 -0.0012778296 0.17167956
-0.035320923 0.13003884 -0.14398964 -0.099522 0.13616008 0.1750558 -0.008385953 -0.008376614
0.014599468 0.033986703 0.06984228 0.029923147 -0.17399253 -0.06478889 -0.13181207 0.12483872
0.011439252 -0.082053386 0.07844488 0.07394897 -0.1737419 -0.17356001 -0.01786027 -0.01112682
0.15795004 0.15796773 -0.022792276 -0.1544418 -0.04013641 -0.18699642 0.047330722 -0.073666506
-0.2080443 -0.017182244 -0.016270526 -0.012031281 0.04145937 -0.1452157 0.069253154 0.10838756
0.17278588 -0.12941165 0.026448388 0.17329669 0.041418046 -0.002349804 0.08425523 -0.017846478
-0.04862965 -0.16252787 0.12496707 -0.08198005 -0.08946021 -0.122654356 0.16668317 -0.025370028
-0.14831507 0.038951118 0.034582403 0.033872854 0.10377804 -0.033496186 -0.06251908 0.14742365
0.15687485 -0.09357111 0.0996006 0.14800493 -0.017323758 -0.042902924 0.015572694 0.13174795
0.07234178 -0.10165253 -0.071681194 0.071269915 0.005715009 0.029549608 -0.07370865 0.043087643
00000000: bf88 823d 4f46 093d 67d2 d53a 37f5 663d
00000010: d095 cabc 69d9 33be 21b1 10bd 1ed5 5dbc
00000020: 4997 b93d bfda 96bd 8c16 9bbc 7f6d 593b
00000030: 82e0 623d bf4a 0f3c b068 2e3e 4310 d73d
00000040: ee15 26be 5189 053d 1634 1f3d b727 c43c
00000050: 7b4a 83bd f0c3 8e3d 152c f4bd ecc4 1b3e
00000060: 20ae 233e 185b 0e3e d15d 873c b925 2d3e
00000070: 9595 f13d a7fc 81bd af4a 00be 1034 0d3e
00000080: 87bc 79bd be18 11be dbf6 23be 3f5e dc3d
00000090: e195 353c 249e 64bc 7a1a c83c 3a60 bbbd
000000a0: a782 6e3d d94f 923d 1282 df3d e142 163c
000000b0: 776d 0a3d 6d69 0bbe 0382 173d e93d dbbc
000000c0: 8b9b 083e 7935 bebd d56c 853d 0aac 003e
000000d0: 614d abbd 1a32 78bb 647c 89bd 0a15 323e
000000e0: 9b84 383d 1950 e8bd af60 f5bd 645a 493c
000000f0: 774d ff3d aaa3 6c3c 64c9 413e 0547 8cbc
00000100: ff00 b93d 762d 2f3d 9d81 f3bd a9f3 043d
00000110: 350e 273e 77ff 4b3e ab05 963d ddef 313e
00000120: 9d4b 27be 0e42 09be 33ed 063d 7186 463e
00000130: b360 493d b286 133d 86bc 61bd df84 f43d
00000140: 0afc 213e c8c6 18be 684f f03c 5026 713d
00000150: 2e53 a2bd a356 9d3d 3df8 81bc fea6 3cbe
00000160: 0339 29be 8215 9c3d 8319 b03d fb69 2abe
00000170: 9b2b 8ebc 9494 773d 2017 e9bc 6635 aebd
00000180: 2f41 043e f26e 043e c24e ce3d 0f2b bc3d
00000190: 4009 423d 35fb 173e b7c9 7ebd 46ba fe3d
000001a0: fa9b 313e 54e7 a5bd f62e ea3d f049 aebd
000001b0: 077a 25be 205b 353d 57f4 e83d af7c b4bd
000001c0: fc8f 2abe 9427 cf3c ecb4 29be c5db e3bd
000001d0: 8cd9 f1bc 4bc9 8b3d bcfb 9dbd 9ded d7bb
000001e0: 685e db3d 0399 203e 7a41 f83c ab1b 16be
000001f0: 922a 213e 7257 c43d 7510 c13c c186 e6bc
00000200: b86a e2bd 2872 04be 9ee4 073e be9e 5bbd
00000210: 462c fc3c 723f e93d 0b37 793d ad1f cd3d
00000220: ceba 26bd 4d45 213e 58c7 113d b3a5 11bd
00000230: 9fea cabd dec4 c83d 5a12 8dbd ee83 acbc
00000240: e93c 163e 0be0 f6bd 2811 febd a9e2 65bd
00000250: eb11 f43d 9b58 28be c529 b83d 4343 05bd
00000260: 3d8b d6bd 8bda 14bd 82c4 e7bd d156 bfbd
00000270: de31 02be a068 d73d 7ae8 2b3c 9a35 babc
00000280: 9219 053d b158 293e a5dd ed3c c1fe 84bd
00000290: adb8 2fbd 8562 8a3c 8dd6 73bd 66b0 e33d
000002a0: a17b 5cbb 4eee febd 5418 a8bb af5b cfbc
000002b0: 5d36 1cbe d714 203e d97c a7ba c4cc 2f3e
000002c0: acac 10bd e728 053e 0572 13be 31d2 cbbd
000002d0: 8c6d 0b3e d441 333e 3c65 09bc 113e 09bc
000002e0: 9b32 6f3c a435 0b3d 7809 8f3d 6321 f53c
000002f0: 192b 32be 0ab0 84bd bef9 06be 71ab ff3d
00000300: b36b 3b3c 9b0b a8bd b6a7 a03d 8f72 973d
00000310: 66e9 31be b7b9 31be b34f 92bc 444d 36bc
00000320: a8bd 213e 4bc2 213e deb6 babc fe25 1ebe
00000330: 1466 24bd fd7b 3fbe dcdd 413d 77de 96bd
00000340: 9109 55be c7c1 8cbc c449 85bc da1e 45bc
00000350: 4dd1 293d 6db3 14be 99d4 8d3d 4cfa dd3d
00000360: c8ee 303e 7d84 04be 4aaa d83c b074 313e
00000370: f8a5 293d 2bff 19bb 028e ac3d c732 92bc
00000380: e22f 47bd b56d 26be bcee ff3d 28e5 a7bd
00000390: ea36 b7bd 3532 fbbd feae 2a3e ced4 cfbc
000003a0: e8df 17be 358b 1f3d 47a6 0d3d 43be 0a3d
000003b0: 9589 d43d 4c33 09bd 010a 80bd 3af6 163e
000003c0: cda3 203e 36a2 bfbd 66fb cb3d 9b8e 173e
000003d0: 8eea 8dbc faba 2fbd 9d24 7f3c efe8 063e
000003e0: ed27 943d 342f d0bd 97cd 92bd f6f5 913d
000003f0: f844 bb3b 0512 f23c 90f4 96bd ab7c 303d

shared_2.bias f4 [128]
0.12081887 -0.12898268 -0.05687283 -0.05471995 -0.043335173 0.028442495 -0.10382688 0.09819971
-0.023823705 0.10553203 -0.13643166 0.128464 0.091516584 0.1305117 0.11239724 0.14274868
0.13022885 0.17782003 0.091179796 -0.0706522 0.05027149 -0.044864412 0.0019288004 -0.15897998
0.03143223 -0.016129969 -0.090965 0.17218347 -0.08054224 -0.11631917 0.10326228 0.16968898
0.14410487 0.061368186 0.07774859 0.036110207 0.12743658 0.07404205 -0.032471437 -0.04879462
-0.026177062 0.12356399 0.16766784 -0.062926576 0.09523072 0.08308009 0.10625682 -0.14337008
-0.12105683 -0.141467 -0.19516814 -0.12268744 -0.04865216 0.17476538 -0.06979089 0.1683718
-0.028074047 0.03689712 -0.14963041 -0.031698123 0.023314985 0.11568785 0.029241405 -0.10942338
0.09154917 0.065385394 0.00770222 0.1254509 0.11102381 0.1725556 -0.046744864 0.14844203
-0.0626371 0.118379444 -0.06640151 -0.016235152 0.061331905 -0.0481138 -0.024724295 -0.021044007
0.059060283 0.06245738 0.13180913 0.11703165 -0.036399543 0.06587456 0.11074633 0.02112319
0.0535301 -0.12402014 -0.077247195 0.040153395 0.1503568 0.018228907 -0.13895623 0.13645665
0.15189074 -0.13751668 -0.05955077 -0.091002464 -0.076981984 -0.12666284 0.052198607 0.013157914
-0.11531227 0.14045173 -0.12386415 0.11755459 -0.15843898 -0.10028062 0.08711696 0.13277735
-0.14265352 -0.11997515 0.13041097 -0.00283426 0.17976505 0.03570655 0.08539508 -0.15748304
-0.16258094 0.18408279 -0.16919042 -0.124309786 0.15425983 0.1331405 0.054076057 0.08827661
00000000: e26f f73d 0914 04be 7cf3 68bd 0722 60bd
00000010: 3980 31bd 3c00 e93c 30a3 d4bd ee1c c93d
00000020: ee29 c3bc 2d21 d83d beb4 0bbe 118c 033e
00000030: 0c6d bb3d dca4 053e 8630 e63d b62c 123e
00000040: b65a 053e 7416 363e 79bc ba3d 1ab2 90bd
00000050: 7ae9 4d3d bfc3 37bd cdcf fc3a a6cb 22be
00000060: 15bf 003d ff22 84bc dc4b babd dd50 303e
00000070: 54f3 a4bd bf38 eebd 2d7b d33d f3c2 2d3e
00000080: 3a90 133e 355d 7b3d a73a 9f3d 4ce8 133d
00000090: bc7e 023e 5ca3 973d c500 05bd dedc 47bd
000000a0: 4771 d6bc 1e0f fd3d 1eb1 2b3e a6df 80bd
000000b0: 5308 c33d e525 aa3d 2d9d d93d 9bcf 12be
000000c0: a5ec f7bd badc 10be 28da 47be 8d43 fbbd
000000d0: 7d47 47bd b2f5 323e 87ee 8ebd a869 2c3e
000000e0: 8bfb e5bc 6f21 173d b738 19be e4d5 01bd
000000f0: 11ff be3c c0ed ec3d ac8b ef3c 5d19 e0bd
00000100: 227e bb3d c7e8 853d e862 fc3b 3376 003e
00000110: 7460 e33d 6ab2 303e 8b77 3fbd 3001 183e
00000120: e147 80bd ec70 f23d 84fd 87bd 95ff 84bc
00000130: 2a37 7b3d fa12 45bd 9b8a cabc 7b64 acbc
00000140: 32e9 713d 4fd3 7f3d f9f8 063e 4aae ef3d
00000150: b017 15bd 3ee9 863d f9ce e23d 8a0a ad3c
00000160: 6142 5b3d 45fe fdbd c733 9ebd e377 243d
00000170: 22f7 193e ca54 953c 8b4a 0ebe 4bbb 0b3e
00000180: 3f89 1b3e 2cd1 0cbe 82eb 73bd 805f babd
00000190: bba8 9dbd e7b3 01be 35ce 553d 4b94 573c
000001a0: d728 ecbd 94d2 0f3e 7dac fdbd 76c0 f03d
000001b0: d43d 22be ed5f cdbd 606a b23d c9f6 073e
000001c0: c413 12be 88b5 f5bd 748a 053e febe 39bb
000001d0: 5414 383e 0841 123d 9ee3 ae3d 3c43 21be
000001e0: 9e7b 26be 3380 3c3e 4140 2dbe 2196 febd
000001f0: 4af6 1d3e fc55 083e db7e 5d3d 5eca b43d

out_value.weight f4 [1, 128]
-0.12969188 0.1585715 0.1254705 0.13536969 0.13492587 -0.13497202 0.11791042 -0.13006638
0.16902424 -0.15024893 0.19164318 -0.14421743 -0.18812014 -0.12759683 -0.11435696 -0.17525
-0.10857777 -0.13357134 -0.17997232 0.17904992 -0.17647403 0.17104009 0.19524261 0.122790776
-0.12735209 0.13953044 0.16727558 -0.12094996 0.10351658 0.11150343 -0.18484092 -0.16107087
-0.14154425 -0.09969418 -0.20157044 -0.10221034 -0.13616446 -0.13988261 0.091900736 0.15598774
0.14717959 -0.14573555 -0.19901006 0.08693877 -0.18739122 -0.1408428 -0.18454194 0.14216354
0.1657079 0.16510102 0.11574856 0.15743679 0.116806515 -0.12601554 0.15605095 -0.107507154
0.11895184 -0.18479264 0.15636626 0.17789978 -0.14878207 -0.12601477 -0.1025795 0.19368896
-0.14072789 -0.15184711 -0.13850957 -0.164458 -0.15639144 -0.12807225 0.13684434 -0.1866262
0.094882384 -0.12978621 0.15595795 0.17131685 -0.17667012 0.18314004 0.17426664 0.13587403
-0.15578996 -0.12792292 -0.1280342 -0.1889131 0.14151904 -0.12816371 -0.168482 -0.1463586
-0.15784493 0.12498035 0.112145945 -0.17185946 -0.13707338 -0.1839007 0.19151317 -0.16257857
-0.1549427 0.16868375 0.16017258 0.1459956 0.1626652 0.14133058 -0.12274704 0.15936212
0.14449854 -0.11781145 0.18102445 -0.18099098 0.124980286 0.11875857 -0.11890442 -0.19249876
0.1465777 0.116657995 -0.17227225 0.12571119 -0.11443645 -0.16542733 -0.09989406 0.15644056
0.10280418 -0.14217548 0.11997673 0.13292032 -0.13495167 -0.11377753 -0.11899506 -0.1695587
00000000: f3cd 04be 9160 223e 577b 003e 5a9e 0a3e
00000010: 022a 0a3e 1b36 0abe 057b f13d 1f30 05be
00000020: b114 2d3e dbda 19be 1c3e 443e bcad 13be
00000030: 91a2 40be bea8 02be fb33 eabd bc74 33be
00000040: 065e debd edc6 08be aa4a 38be dd58 373e
00000050: 9cb5 34be 2225 2f3e aeed 473e bb79 fb3d
00000060: 9668 02be 11e1 0e3e 4a4a 2b3e 9db4 f7bd
00000070: 8000 d43d e95b e43d f046 3dbe c3ef 24be
00000080: faf0 10be 762c ccbd 7b68 4ebe a853 d1bd
00000090: b26e 0bbe 633d 0fbe 7436 bc3d 40bb 1f3e
000000a0: 3fb6 163e b33b 15be 4bc9 4bbe f40c b23d
000000b0: 7ce3 3fbe 1839 10be 90f8 3cbe 5293 113e
000000c0: 55af 293e 3e10 293e 950d ed3d 1c37 213e
000000d0: 4138 ef3d 380a 01be d2cb 1f3e b62c dcbd
000000e0: 069d f33d 483a 3dbe 7a1e 203e 5c2b 363e
000000f0: 545a 18be 040a 01be 3315 d2bd 6656 463e
00000100: f91a 10be cf7d 1bbe 74d5 0dbe ae67 28be
00000110: 1425 20be 5f25 03be ec20 0c3e f01a 3fbe
00000120: b251 c23d ade6 04be 71b3 1f3e af6d 2f3e
00000130: 03e9 34be 1089 3b3e f472 323e 9022 0b3e
00000140: 6787 1fbe 3afe 02be 661b 03be 7072 41be
00000150: 5eea 103e 593d 03be 8c86 2cbe 07df 15be
00000160: 1aa2 21be b3f5 ff3d c6ac e53d edfb 2fbe
00000170: f75c 0cbe 7750 3cbe 071c 443e ff7a 26be
00000180: 4da9 1ebe 6fbb 2c3e 4804 243e df7f 153e
00000190: b591 263e f7b8 103e cd62 fbbd d32f 233e
000001a0: 6df7 133e 2147 f1bd 795e 393e b355 39be
000001b0: aaf5 ff3d b137 f33d 2984 f3bd 651e 45be
000001c0: 7718 163e 63ea ee3d 2368 30be 6fba 003e
000001d0: a85d eabd c865 29be 4295 ccbd f431 203e
000001e0: ff8a d23d 7396 11be 5cb6 f53d 441c 083e
000001f0: c530 0abe 3204 e9bd afb3 f3bd cca0 2dbe
