PPO/weight/run2/ppo_act_model153.pth (torch, 75426 bytes, 6 tensors)

shared_1.weight f4 [128, 8]
0	0xbe9be7e6	-0.30450362
1	0xbd388e9f	-0.04505789
2	0x3dfd9d36	0.12383501
3	0xbd6c6abe	-0.057718985
4	0xbeb007cb	-0.34380946
5	0xbed3de46	-0.4138052
6	0x3de5f905	0.11229137
7	0x3e4d4da8	0.20049155
8	0xbe515155	-0.20441182
9	0xbe31d224	-0.17365319
10	0x3e4b60bc	0.1986112
11	0x3e152f34	0.14568788
12	0xbeb95ac1	-0.36202052
13	0x3e2e8558	0.17043054
14	0x3e800f44	0.25011647
15	0xbe091cea	-0.13389936
16	0x3d9f9d14	0.07793632
17	0x3e3058fe	0.17221448
18	0xbd915b66	-0.07097511
19	0x3cf58952	0.029972706
20	0x3eb3d772	0.3512531
21	0xbd8e2fea	-0.06942733
22	0x3e741e90	0.23839784
23	0x3eb06d46	0.3445837
24	0xbeb02985	-0.34406677
25	0x3e43ee3d	0.1913385
26	0x3e6d1247	0.23151504
27	0x3efee507	0.4978411
28	0xbdf8a3a2	-0.121405855
29	0x3e2eafe8	0.1705929
30	0xbe63fe63	-0.2226501
31	0xbe5a54da	-0.21321431
32	0xbe0989b1	-0.13431431
33	0xbd92d4b4	-0.07169476
34	0xbd2d4bdb	-0.04230867
35	0x3e492a84	0.19645125
36	0x3da4cefb	0.08047291
37	0x3d852d28	0.065027535
38	0x3d51c48f	0.051212844
39	0xbe4f315e	-0.20233676
40	0x3dba1305	0.09085659
41	0x3e479ef8	0.19494236
42	0xbebdbeef	-0.37059733
43	0x3e7da7d9	0.2477106
44	0x3ea9cafd	0.3316268
45	0xbe44b0a7	-0.19208013
46	0x3c62bd56	0.0138390865
47	0x3e1eaf37	0.15496527
48	0x3e9b0f25	0.30284992
49	0x3e51cc78	0.20488155
50	0x3e1c6136	0.15271458
51	0xbe9c4ed1	-0.30528882
52	0x3e730f75	0.23736365
53	0x3eaeb940	0.3412571
54	0x3e9f126a	0.31068736
55	0x3e69093b	0.22757427
56	0xbe8c375f	-0.27385995
57	0x3dad188a	0.08451946
58	0xbe6d3a2c	-0.23166722
59	0x3d0b9b64	0.03408374
60	0xbe36376d	-0.17794581
61	0xbeb7682b	-0.3582166
62	0xbe95e321	-0.29274848
63	0x3c35bb67	0.0110920435
64	0x3e8b9229	0.2725995
65	0xbdd82db0	-0.10555589
66	0xbea96819	-0.33087233
67	0xbe88ca10	-0.2671666
68	0x3e19cf6b	0.1502053
69	0xbcec2869	-0.028827863
70	0xbea7f4d3	-0.32803974
71	0xbdf88acb	-0.12135848
72	0xbdd29b07	-0.10283475
73	0x3e896893	0.26837596
74	0xbd9d66f9	-0.07685656
75	0xbe860e8c	-0.26182973
76	0x3d620c10	0.055187285
77	0xbe887e60	-0.26658916
78	0xbd1ff40d	-0.039051104
79	0xbd6b4898	-0.057442278
80	0x3ea8c61c	0.32963645
81	0x3dcc8de9	0.09988005
82	0xbcef5342	-0.029214505
83	0xbe71744f	-0.23579524
84	0x3e8c5661	0.27409652
85	0x3def09ab	0.11671766
86	0x3cf8102b	0.030281147
87	0xbebab161	-0.36463454
88	0xbea54e87	-0.32286474
89	0x3d88c8b9	0.0667891
90	0xbeb8e3f6	-0.3611142
91	0x3e933e8f	0.28758666
92	0x3e30fe09	0.17284407
93	0x3da0a8ac	0.078446716
94	0x3e663586	0.22481355
95	0x3d99b7a5	0.075057305
96	0x3e40877f	0.18801688
97	0x3daacb30	0.08339536
98	0xbeb61d85	-0.35569397
99	0x3e96dad0	0.29463816
100	0xbe98b9a5	-0.29829136
101	0x3ea247ce	0.31695408
102	0xbe441f5b	-0.19152586
103	0x3e85b9d8	0.2611835
104	0x3b510ce4	0.0031898553
105	0xbc493073	-0.012279618
106	0xbdbb4b84	-0.09145263
107	0xbe98fac3	-0.29878816
108	0xbe90aaa8	-0.282552
109	0xbe440916	-0.19144091
110	0x3e2c2bb8	0.16813552
111	0x3e256d28	0.16154921
112	0x3e5b2168	0.21399462
113	0xbe8c3c83	-0.27389917
114	0xbd25a0aa	-0.040436424
115	0x3ea84c30	0.32870626
116	0xbe92b9d2	-0.28657395
117	0xbe86b1b8	-0.26307464
118	0x3e6e0b33	0.2324646
119	0x3e8fce4f	0.28087088
120	0xbe2b56eb	-0.16732375
121	0xbdea8243	-0.11450627
122	0xbeb94de9	-0.36192253
123	0x3d455f62	0.048186667
124	0x3ea24c42	0.31698805
125	0xbe60109d	-0.21881337
126	0xbbcadcae	-0.006190858
127	0x3e11522b	0.14191501
128	0x3e8e04f0	0.27738142
129	0x3e421f37	0.1895722
130	0x3e74a2bf	0.23890208
131	0xbe295c18	-0.16539037
132	0xbce4b3c9	-0.02791776
133	0x3e5472cc	0.20746917
134	0xbe3a1482	-0.18171886
135	0x3e9760a5	0.2956592
136	0x3d2598c0	0.040428877
137	0xbedf73d2	-0.4364305
138	0xbe7200bd	-0.23633094
139	0xbd7dd6ad	-0.06197231
140	0xbeb1c998	-0.34724116
141	0x3e91be45	0.28465477
142	0xbe121d97	-0.142691
143	0x3a3865be	0.0007034204
144	0x3eaa456a	0.33256084
145	0xbe0b578c	-0.13607615
146	0x3e89f2a3	0.2694293
147	0xbe9d51f9	-0.30726603
148	0xbdd97d5d	-0.10619614
149	0xbe4988da	-0.19681111
150	0x3e4986c1	0.19680311
151	0x3df22f85	0.1182547
152	0x3e897e2c	0.26854074
153	0xbeba6adc	-0.36409652
154	0xbe17c4ca	-0.14821163
155	0x3e364ec8	0.1780349
156	0x3e463fb0	0.19360232
157	0x3dc2874f	0.09498464
158	0xbe029404	-0.12751776
159	0x3ea99b93	0.33126506
160	0xbd84aa84	-0.06477836
161	0x3e91d186	0.28480166
162	0xbebd843a	-0.37014943
163	0x3ecff572	0.40616947
164	0x3ef94e72	0.48692662
165	0xbe164890	-0.14676118
166	0x3e408c16	0.18803439
167	0x3d6923bf	0.056918856
168	0x3a98f4e5	0.0011669664
169	0xbe37f1c7	-0.17963324
170	0x3e0e6352	0.13905075
171	0x3ee8e864	0.454898
172	0x3c3e65be	0.011620937
173	0x3e9d6a64	0.30745232
174	0x3e08ded1	0.13366248
175	0x3e7c7dd0	0.24657369
176	0xbd0ca62d	-0.034338165
177	0x3e2fd91b	0.17172663
178	0xbe88bc64	-0.2670623
179	0x3e084e59	0.13311137
180	0x3d081c03	0.03322984
181	0x3e997169	0.29969338
182	0x3e3ea416	0.18617281
183	0x3e3cf953	0.18454485
184	0xbe00c0be	-0.12573525
185	0xbc558985	-0.0130332755
186	0xbe88c76c	-0.26714647
187	0x3e124323	0.14283423
188	0x3eeeab01	0.4661484
189	0xbdd84313	-0.105596684
190	0xbd1dc4e0	-0.038517833
191	0xbeafa6e8	-0.34307027
192	0xbeadf0ab	-0.33972678
193	0x3e535576	0.2063807
194	0x3e8ea29c	0.27858436
195	0x3e3669dc	0.1781382
196	0x3e289de3	0.16466479
197	0x3c4cd325	0.012501513
198	0xbe83edc5	-0.2576734
199	0xbe621e87	-0.22081958
200	0xbe9e3817	-0.30902168
201	0x3e851f92	0.2600065
202	0xbea76842	-0.3269673
203	0xbebb0da3	-0.36533841
204	0x3ede4fe5	0.4342033
205	0x3e6e7d88	0.23290074
206	0x3d11951a	0.035542585
207	0xbed28202	-0.41114813
208	0xbe819a06	-0.25312823
209	0x3c170dfa	0.009219641
210	0xbe99d730	-0.30046988
211	0xbe75c09e	-0.23999259
212	0xbe0cf336	-0.13764653
213	0xbe3da6b0	-0.18520617
214	0x3e0480ee	0.12939808
215	0xbe74b45a	-0.23896924
216	0xbe72f81d	-0.2372746
217	0xbe0b124b	-0.13581197
218	0x3df100d3	0.11767735
219	0x3e1209a9	0.14261498
220	0x3e11ead2	0.14249733
221	0xbebd2407	-0.3694155
222	0x3ea456b9	0.32097414
223	0x3e9fb7c2	0.31194884
224	0xbd1d41b1	-0.038392726
225	0x3def3e94	0.11681858
226	0xbe4f56a9	-0.20247902
227	0x3e93ae59	0.28843954
228	0xbe1cc76e	-0.15310451
229	0xbe5a4190	-0.21314073
230	0xbea9a214	-0.33131468
231	0xbe757aab	-0.23972575
232	0xbd9d9a73	-0.076954745
233	0x3e27f1f1	0.16400887
234	0xbe4c729b	-0.19965594
235	0x3e9b5ba4	0.30343354
236	0x3e82c12e	0.2553801
237	0xbe970752	-0.29497772
238	0x3dfb2b9d	0.12264178
239	0x3e076969	0.13223805
240	0x3dfd1c43	0.12358906
241	0xbec5f4f9	-0.38663462
242	0x3bbfd9a6	0.005854803
243	0x3e9d153e	0.3068027
244	0xbcd60227	-0.026124073
245	0x3e3aaf6a	0.18230978
246	0xbe7ebf52	-0.2487767
247	0x3df0834b	0.11743792
248	0x3e9e3dc7	0.30906507
249	0xbe2ae8e9	-0.1669041
250	0x3dcef96e	0.10106169
251	0x3e2fc4bf	0.17164896
252	0xbe765eda	-0.2405962
253	0x3e0ca9a0	0.13736582
254	0x3e1c3015	0.15252717
255	0xbdbbce38	-0.091701925

shared_1.bias f4 [128]
0	0xbe077e50	-0.13231778
1	0xbe5de960	-0.21671057
2	0xbeb942bf	-0.36183736
3	0xbe9cc3f7	-0.3061826
4	0xbe88e837	-0.26739666
5	0xbe5c6beb	-0.21525542
6	0xbe42b1de	-0.19013163
7	0x3ea598a4	0.32343018
8	0x3e8216e3	0.25408086
9	0x3e79d1db	0.2439646
10	0x3e1c06da	0.15236989
11	0xbe0816db	-0.13289969
12	0x3e274999	0.16336669
13	0xbe3f4f9b	-0.18682711
14	0x3e0b6321	0.13612033
15	0x3da7f8b4	0.08201733
16	0x3eb077d3	0.3446642
17	0xbcdae74d	-0.026721621
18	0xbe529918	-0.20566213
19	0xbc533f41	-0.012893499
20	0x3e7c0b6b	0.2461373
21	0x3dccfb82	0.10008909
22	0xbe660b2b	-0.22465198
23	0x3e02a87f	0.12759589
24	0xbd6f747f	-0.05846071
25	0xbd9f19c5	-0.07768587
26	0xbab8c82a	-0.001409774
27	0x3e03740d	0.12837239
28	0x3ea573e9	0.32314995
29	0xbd7d66fa	-0.061865784
30	0x3dadab13	0.084798954
31	0xbe8a0526	-0.26957053
32	0xbe663ffa	-0.22485343
33	0x3d94b2ae	0.07260643
34	0x3e4059d9	0.18784274
35	0xbe8f7135	-0.28016058
36	0x3e565357	0.20930229
37	0xbcc71ec1	-0.024306657
38	0xbe268989	-0.16263403
39	0x3e9659be	0.29365343
40	0x3df32a75	0.118733324
41	0xbe51044c	-0.20411795
42	0x3e2ee908	0.17081082
43	0xbe4e691e	-0.20157287
44	0x3eab2c44	0.3343221
45	0x3e9d43c9	0.30715778
46	0x3eba2612	0.3635717
47	0x3e822438	0.25418258
48	0xbd97773b	-0.07395788
49	0x3d329fee	0.043609552
50	0xbe7a5fc8	-0.244506
51	0x3e69c6ec	0.22829789
52	0xbdf006e2	-0.11720063
53	0xbccc25f4	-0.024920441
54	0xbe7ddbc4	-0.24790865
55	0x3e60dab4	0.21958429
56	0x3ec90a0f	0.39265487
57	0x3eac697f	0.33674237
58	0xbe254574	-0.16139776
59	0x3eb43266	0.351947
60	0x3e8418ca	0.25800163
61	0x3e74839c	0.2387833
62	0xbd31a648	-0.04337147
63	0x3d53f408	0.0517464
64	0x3ea59c29	0.32345703
65	0x3e2b10c0	0.16705608
66	0x3e1e569c	0.15462726
67	0xbe3816f9	-0.17977513
68	0x3eb1761a	0.34660417
69	0x3e959a0b	0.29219088
70	0xbdafacc4	-0.08577874
71	0x3e8c7759	0.27434805
72	0x3dc5744a	0.09641321
73	0x3db90a46	0.09035163
74	0x3d5dbee3	0.054137122
75	0xbd9748c6	-0.07386927
76	0x3e99326c	0.2992128
77	0x3e87c198	0.26514888
78	0xbe29c87c	-0.16580385
79	0xbe837a32	-0.25679165
80	0xbd15bffc	-0.036560044
81	0xbe6caa42	-0.23111823
82	0x3ec537bb	0.3851908
83	0x3d991439	0.0747456
84	0xbe25bf4d	-0.16186257
85	0x3d1fa7ef	0.038978513
86	0xbdf26ac7	-0.118367724
87	0x3e82bb53	0.25533542
88	0xbe2ee16c	-0.17078179
89	0x3cb9bea9	0.022673922
90	0x3c5e2c1a	0.013560319
91	0x3ecbbbeb	0.39791808
92	0xbe2c62c7	-0.16834556
93	0xbdffc1b6	-0.12488119
94	0x3d0dcb9c	0.034618005
95	0x3d400aad	0.04688518
96	0xbe12c2e1	-0.14332153
97	0xbd706a78	-0.058695287
98	0xbd89c008	-0.0672608
99	0x3e4929bc	0.19644827
100	0x3da9071e	0.082533106
101	0x3ea3e335	0.32009283
102	0x3e4ab7de	0.19796702
103	0x3e9f9fac	0.31176507
104	0xbe79bca7	-0.24388371
105	0x3e8daf27	0.27672693
106	0x3d71ec2e	0.05906313
107	0x3c982404	0.018571861
108	0x3e98daab	0.2985433
109	0xbea20004	-0.31640637
110	0xbdd049d4	-0.101703316
111	0xbe56bcc3	-0.20970444
112	0x3e3678ec	0.17819566
113	0xbe6513d7	-0.2237085
114	0xbe3381d8	-0.1753
115	0x3d5c554a	0.053792275
116	0xbe015562	-0.12630227
117	0x3e8e1c91	0.2775617
118	0x3eb3d61c	0.3512429
119	0xbdea79f4	-0.11449042
120	0xbe0293bd	-0.1275167
121	0xbe6b0ca1	-0.22954036
122	0x3d0200ac	0.031738922
123	0x3e50dc87	0.20396625
124	0xbd31f09f	-0.043442365
125	0x3e9756fa	0.29558545
126	0x3e36e94c	0.17862433
127	0x3e909a5b	0.28242764

shared_2.weight f4 [128, 128]
0	0xbdc4dbcd	-0.09612236
1	0x3d148118	0.036255926
2	0x3e003bab	0.12522762
3	0xbd2172bf	-0.03941607
4	0xbd828263	-0.063725255
5	0x3d569de7	0.05239668
6	0x3ace374a	0.001573303
7	0x3d9135f9	0.070903726
8	0xbc781d9d	-0.015143779
9	0xbcd20347	-0.025636328
10	0x3be58ceb	0.007005324
11	0x3c1dd572	0.009633409
12	0x3d6f2da8	0.05839315
13	0x3cd47ceb	0.025938472
14	0xbd848f8e	-0.064726934
15	0x3d889b9c	0.06670305
16	0x3c222e46	0.009898728
17	0xbb8dcf80	-0.0043277144
18	0xbc9c2448	-0.019060269
19	0x3d79f2e0	0.06102264
20	0x3d6ebc9e	0.058285348
21	0x3d9bf73b	0.07615515
22	0xbc26a1e5	-0.010170435
23	0x3bec9327	0.0072196904
24	0x3dad6a9a	0.08467598
25	0x3c35d7ec	0.011098843
26	0xbd7f1d06	-0.06228354
27	0x3d62a579	0.05533359
28	0x3da84c0c	0.0821763
29	0x3c3cd7e6	0.011526084
30	0x3d6a72de	0.057238452
31	0x3d2a96ef	0.041647848
32	0x3cfd7811	0.030941041
33	0x3c51f6ad	0.01281516
34	0xbdaf8bfa	-0.0857162
35	0x3e1dc063	0.15405421
36	0xbdf9acad	-0.121911384
37	0xbdae1b79	-0.08501334
38	0x3d91d078	0.071198404
39	0xbc8c5809	-0.017131822
40	0xbd70c497	-0.058781233
41	0x3d6efc35	0.058345992
42	0x3d4074d8	0.04698643
43	0xbd0bd1c6	-0.034135602
44	0x3d5c3650	0.053762734
45	0x3d81c8d4	0.06337133
46	0x3d134913	0.03595836
47	0x3d321f6f	0.04348701
48	0xbd594bad	-0.053050686
49	0xbd62b827	-0.055351403
50	0x3d088185	0.033326644
51	0x3cac5136	0.021034818
52	0x3c77a79c	0.015115645
53	0xbc3bc1c5	-0.0114597725
54	0xbd33ae4d	-0.043867398
55	0xbcd2bf54	-0.025725998
56	0xbbe01c42	-0.006839306
57	0x3cb71ae0	0.022351682
58	0xbd1e9a58	-0.038721412
59	0x3d08e37f	0.033420082
60	0xbd0085ee	-0.031377725
61	0x3d1f1001	0.038833622
62	0xbcabf533	-0.020990944
63	0xbb5368b0	-0.0032258444
64	0x3c992337	0.01869355
65	0x3cc571fd	0.024102205
66	0x3da82639	0.082104154
67	0xbc1a085a	-0.009401405
68	0x3da3a85a	0.07991095
69	0x3d326131	0.04354972
70	0xbdd92ea8	-0.10604602
71	0x3d279a30	0.04091853
72	0xbe03962a	-0.12850252
73	0xbd9f4cbe	-0.07778309
74	0x3d99f412	0.07517256
75	0xbd848bdb	-0.06471988
76	0xbdbdbedb	-0.092649184
77	0xbda3be50	-0.079952836
78	0x3cafdd42	0.021467809
79	0x3dddd477	0.1083154
80	0xbde43c47	-0.111443095
81	0x3d7a3f6c	0.06109564
82	0xbc500cc2	-0.012698354
83	0x3c47241e	0.012154607
84	0x3cdcf902	0.026974205
85	0x3de42ce1	0.111413725
86	0xbd5dca7b	-0.05414818
87	0xbddd6ccb	-0.10811766
88	0xbd937f4a	-0.07202013
89	0xbcc75b55	-0.024335543
90	0x3c534750	0.01289542
91	0xbd486697	-0.048925962
92	0x3b0cc84e	0.0021481696
93	0xbcaa4f86	-0.020789873
94	0x3cfc941d	0.030832345
95	0x3e0bedf3	0.13664989
96	0x3dfc8d18	0.12331599
97	0x3e0f2e51	0.13982512
98	0x3dad40b4	0.08459607
99	0xbbe84ab1	-0.007088982
100	0x3d602ef2	0.05473227
101	0x3d84a238	0.06476253
102	0x3c5a0d13	0.013308781
103	0xbc0231c4	-0.007946435
104	0x3d55c49d	0.05218946
105	0xbcbc1154	-0.022957481
106	0x3dd6e0eb	0.104921184
107	0x3db25548	0.08707672
108	0xbcfcddf5	-0.030867556
109	0xbd85109e	-0.0649731
110	0x3d5b767f	0.053579804
111	0xbc9508ee	-0.018192735
112	0xbe062f1d	-0.1310391
113	0x3b1223d9	0.00222992
114	0x3d15c956	0.036568962
115	0xbdc54055	-0.09631411
116	0xbdcf585e	-0.101242766
117	0x3d5f6d13	0.05454738
118	0xbd7126b6	-0.05887481
119	0x3dbc54a4	0.091958314
120	0xbd606173	-0.054780435
121	0xbdf3fb68	-0.11913186
122	0x3cc617c7	0.02418126
123	0x3d14da7b	0.03634117
124	0x3db37a3d	0.087635495
125	0x3cec1f0f	0.028823404
126	0xbc2fb021	-0.010723145
127	0xbd969d47	-0.07354217
128	0xbd3bc2e4	-0.04584016
129	0xb987ea14	-0.00025923608
130	0xbd145b21	-0.03621972
131	0xbb6b2441	-0.0035879763
132	0x39cb45ba	0.00038771128
133	0xbd94ec72	-0.07271661
134	0xbc3e1e76	-0.011603942
135	0xbc12f2f9	-0.008969062
136	0xbba2485e	-0.0049524745
137	0x3cbdf5f9	0.023188578
138	0x3cf8a00f	0.03034976
139	0xbe1eddb3	-0.15514259
140	0x3c679707	0.014135129
141	0x3df3424c	0.118778795
142	0x3a662714	0.0008779627
143	0xbd929530	-0.071573615
144	0xbc16d4b9	-0.0092059905
145	0x3bced439	0.00631192
146	0xbc34ee3e	-0.0110431295
147	0xbca23ce4	-0.019804426
148	0xba8da6b6	-0.001080713
149	0x3cb6a320	0.022294581
150	0xbd547880	-0.05187273
151	0xbd85d3fe	-0.06534575
152	0xbc877001	-0.0165329
153	0x3c63ea2a	0.0139108095
154	0x3dd769d9	0.10518236
155	0xbd95be20	-0.07311654
156	0xbb9077e2	-0.0044088224
157	0xbd8bb10c	-0.068208784
158	0xbc553e7a	-0.013015384
159	0xbcd6cecb	-0.026221653
160	0xbe00ad6b	-0.12566154
161	0xbcf1756e	-0.02947494
162	0xbd97e24e	-0.07416211
163	0xbe1fc0a6	-0.15600833
164	0x3c5d3170	0.013500556
165	0xbd3abb5d	-0.04558884
166	0xbd9f5697	-0.077801876
167	0x3dabccc5	0.08388666
168	0x3b08375e	0.0020784955
169	0x3d738396	0.059451662
170	0x3d22fe69	0.039793406
171	0xbc99b0ca	-0.018761057
172	0x3d03a5c7	0.03214052
173	0x3e06ac2c	0.13151616
174	0xbd2963f9	-0.041355107
175	0x3bb9fcf1	0.005675905
176	0xbdde6071	-0.108582385
177	0xbdd9a1a9	-0.10626537
178	0xbdc3e47b	-0.095650636
179	0xbcef7e49	-0.029235022
180	0x3d4413a9	0.047870312
181	0xbcafb5da	-0.021449018
182	0xbda3f2cf	-0.080052964
183	0x3b04923a	0.002022876
184	0xbc15ccdc	-0.009143081
185	0x3c3bfa78	0.011473291
186	0xbe08f763	-0.1337562
187	0x3d8c86c6	0.068616435
188	0x3c3f589b	0.01167884
189	0x3da1b307	0.07895475
190	0xbe1d50ba	-0.15362826
191	0xbd6e8f60	-0.0582422
192	0xbd0cb4cb	-0.034352105
193	0xbd9d1a81	-0.07671071
194	0xbdfc948b	-0.1233302
195	0xbcb20a79	-0.02173351
196	0xbd4a268c	-0.049353167
197	0x3c46338a	0.012097249
198	0x3c006865	0.00783739
199	0x3d487ae1	0.04894531
200	0x3d165ac3	0.03670765
201	0x3bd6f7ab	0.006560286
202	0xbdc72601	-0.097240455
203	0x3c5ae5fa	0.013360495
204	0x3d16886f	0.036751207
205	0x3dd30fc2	0.1030574
206	0x3c8ce746	0.017200124
207	0xbd488b29	-0.04896084
208	0x3dc822d4	0.09772268
209	0x3cf6ade3	0.030112213
210	0x3d88be37	0.066769056
211	0xbd70fbda	-0.058833934
212	0xbcd54757	-0.026034994
213	0x3c92b609	0.017909067
214	0x3c89b8fa	0.016811837
215	0x3dcb5272	0.099278346
216	0x3ca41b94	0.020032682
217	0xbd06e30c	-0.032931373
218	0xbcf51ce8	-0.02992101
219	0x3cf2251e	0.029558714
220	0xbc570570	-0.013123855
221	0xbb2a5030	-0.0025987737
222	0xbd7637bd	-0.06011175
223	0x3cc21b32	0.023694608
224	0xba3830b0	-0.0007026298
225	0xbd35bd88	-0.044370204
226	0xbd6e502b	-0.058181923
227	0x3d863cbd	0.06554554
228	0x3dba4555	0.09095255
229	0xbd2a1629	-0.04152504
230	0x3cf5ba2c	0.029996
231	0xbc00f0d5	-0.007869919
232	0xbd58e14c	-0.052949235
233	0x3d0a5e1a	0.03378115
234	0xbe01b26a	-0.12665716
235	0xbe19ddac	-0.15025967
236	0x3cef9951	0.029247912
237	0x3c838a0a	0.016057033
238	0xbd79daf6	-0.060999833
239	0xbd53b714	-0.05168827
240	0x3d176970	0.036965787
241	0xbdf47e36	-0.11938135
242	0x3d83e32c	0.06439814
243	0x3d3a8c45	0.045543928
244	0x3dbbd5ca	0.091716364
245	0xbd8577f9	-0.065170236
246	0x3dc1a267	0.09454804
247	0x3d8031a1	0.06259466
248	0xbd9e3eba	-0.07726808
249	0x3d7a84fa	0.061161973
250	0x3db93a4a	0.09044321
251	0x3df2e2f9	0.11859698
252	0xbd0af726	-0.033927105
253	0xbd8ba3bf	-0.068183415
254	0xbcb95fdb	-0.022628715
255	0xbdb024f4	-0.08600798

shared_2.bias f4 [128]
0	0xbcb95508	-0.022623554
1	0xbcd43050	-0.025901943
2	0xbd4a6448	-0.049412042
3	0x3d9a9a9b	0.0754902
4	0xbd741edd	-0.059599746
5	0xbdae12b5	-0.08499662
6	0x3dc4001e	0.09570335
7	0xbc628cb5	-0.0138274925
8	0x3cb7c6b0	0.022433609
9	0x3dfa43de	0.12219976
10	0x3d7df478	0.06200072
11	0x3daca98e	0.084307775
12	0x3d84c594	0.064829975
13	0xbc5e808d	-0.013580454
14	0x3d377b35	0.044795234
15	0xbd403d60	-0.04693353
16	0xbdd3204e	-0.10308896
17	0xbd853957	-0.06505077
18	0xbbec58b2	-0.0072127217
19	0x3d289264	0.041155234
20	0x3d90233f	0.07037973
21	0xbd879dfe	-0.066219315
22	0xbd129aee	-0.035792284
23	0x3dccdac6	0.10002665
24	0x3baef566	0.0053393124
25	0x3d2e0b57	0.042491283
26	0x3d4266af	0.047461208
27	0x3d794b8d	0.060863066
28	0x3cc14a18	0.023594901
29	0x3d17edcc	0.037092015
30	0xbc4fa7c9	-0.01267428
31	0xbd66bca9	-0.056332264
32	0x3c956509	0.018236654
33	0xbb1cdee4	-0.0023936564
34	0xbd07bd0e	-0.03313928
35	0x3d7a713e	0.061143152
36	0x3d7e4286	0.06207516
37	0x3c09155c	0.008366909
38	0x3d25a30f	0.040438708
39	0x3df59e74	0.11993113
40	0x3d3fec40	0.046856165
41	0x3a2abe3b	0.0006513332
42	0x3c140092	0.009033339
43	0x3b87bb95	0.0041422346
44	0xbbe0e3a2	-0.0068630734
45	0x3d484e16	0.048902594
46	0xbd820bdf	-0.063499205
47	0x3d4e1b7b	0.050319176
48	0x3d9bb758	0.076033294
49	0x3ae3fb6e	0.0017393657
50	0x3dce52ee	0.10074411
51	0x3be17df1	0.0068814685
52	0x3da85178	0.08218664
53	0x3d7c3069	0.061569605
54	0x3d62ba67	0.05535355
55	0xbd96a90d	-0.07356463
56	0x3dd48c52	0.103783265
57	0x3b6c1513	0.0036023303
58	0x3b279775	0.0025572453
59	0x3d10cf7f	0.035354134
60	0x3d9b3829	0.07579071
61	0x3c99a14d	0.018753672
62	0xbb38860b	-0.0028156068
63	0x3d9a29c5	0.07527498
64	0x3b559a8a	0.0032593333
65	0xbd9b2b88	-0.07576662
66	0xbdbd8290	-0.092534184
67	0x3cac54af	0.021036474
68	0xbd1a2749	-0.03763512
69	0x3d31f019	0.043441866
70	0x3dbce387	0.09223085
71	0xbc55a9a7	-0.013040937
72	0xbd95e1e8	-0.07318479
73	0xbcc1a28c	-0.023637079
74	0xbd820ba9	-0.0634988
75	0x3d25e6ba	0.04050324
76	0x3ddf9cf2	0.10918607
77	0x3e0fe6b7	0.14052854
78	0x3d9de8ae	0.07710396
79	0x3d212e04	0.039350525
80	0x3a9fbd90	0.0012187231
81	0x3c1a0e59	0.009402835
82	0x3daae295	0.08343998
83	0xbd9b4cf1	-0.07583035
84	0x3d406fcf	0.04698163
85	0x3b33c6ed	0.0027431801
86	0x3d04e9f4	0.032449678
87	0x3d2ffd3e	0.04296612
88	0xbc12fb08	-0.008970983
89	0xbca2035e	-0.019776996
90	0x3cb61919	0.022228764
91	0x3ce3e728	0.027820185
92	0xbd43dcb1	-0.04781789
93	0x3c3a3ef5	0.011367549
94	0x3cbeaa27	0.023274494
95	0x3dd99b4a	0.10625322
96	0x3c6de94e	0.014520956
97	0x3c5eb9f8	0.013594143
98	0x3c9176d9	0.017756866
99	0xbc9df25a	-0.019280601
100	0x3c821194	0.015877523
101	0x3d44d3f0	0.04805368
102	0x3de02df1	0.10946263
103	0x3ce744e0	0.028231084
104	0xbd79ab98	-0.06095466
105	0x3d100f66	0.035170935
106	0x3ddeff5c	0.1088855
107	0xbd67f809	-0.05663303
108	0x3d2a88a3	0.041634213
109	0x3d856550	0.065134645
110	0x3d57e75b	0.052710872
111	0xbb54de57	-0.0032481158
112	0x3dcb95e8	0.09940702
113	0x3d60c361	0.054873828
114	0xbc0defb0	-0.008663103
115	0x3db7e35e	0.08978914
116	0x3ccf34d7	0.02529375
117	0x3dd701fd	0.10498426
118	0x3c23d161	0.00999865
119	0x3d8cbc2a	0.06871827
120	0x3dd4a064	0.103821546
121	0x3cf50ca2	0.02991325
122	0x3c7b1baa	0.01532642
123	0xbd48978d	-0.048972655
124	0x3c36a7e6	0.011148429
125	0x3d94f32d	0.072729446
126	0x3d3495b1	0.04408807
127	0x3ce70d9a	0.028204728

out_policy.weight f4 [4, 128]
0	0xbcf74525	-0.030184338
1	0x3c982a5b	0.018574884
2	0xbce40ef3	-0.02783916
3	0x3d3bb320	0.045825124
4	0x3ddbc992	0.10731806
5	0x3d5677ff	0.05236053
6	0xbd727aa7	-0.059199
7	0xbd9799b9	-0.07402367
8	0x3ddf7a44	0.10911992
9	0xbe09dce2	-0.13463166
10	0x3ba839e7	0.0051338556
11	0xbdde36f4	-0.10850325
12	0x3c9ce99f	0.019154368
13	0x3d06f2b6	0.03294631
14	0x3d729cce	0.05923157
15	0x3d7b7429	0.061390076
16	0x3c3454dd	0.011006561
17	0xbaa65db6	-0.0012692723
18	0xbbb7b510	-0.005606301
19	0x3d2a38da	0.041558124
20	0xbdba0777	-0.09083455
21	0x3d38408f	0.044983443
22	0xbd5c3cfe	-0.053769104
23	0xbd52e317	-0.0514861
24	0xbcc20370	-0.02368328
25	0xbd86e410	-0.06586468
26	0xbd8029a5	-0.06257943
27	0x3d053258	0.032518715
28	0xbd1a3bda	-0.037654735
29	0xbd2c0965	-0.042001147
30	0x3d8bee2f	0.06832539
31	0xbcfdc266	-0.030976485
32	0xbe05946d	-0.13044901
33	0xbd0478af	-0.032341655
34	0xbd6178ab	-0.05504672
35	0xbcd0c7a1	-0.025485815
36	0x3dc46872	0.09590234
37	0xbd739a89	-0.059473548
38	0x3d934384	0.07190612
39	0x3d56871c	0.052374944
40	0xbbdbade8	-0.006704081
41	0xbdac10ae	-0.08401619
42	0x3c898e90	0.016791612
43	0xbda64e06	-0.081203505
44	0x3d3f7273	0.046740007
45	0xbd915552	-0.07096352
46	0xbc19417c	-0.009353992
47	0xbdeeb8b9	-0.11656327
48	0x3d876213	0.06610503
49	0x3cc48dec	0.023993455
50	0xbdb34108	-0.08752638
51	0xbd101bcf	-0.03518277
52	0x3c97dfa6	0.018539261
53	0x3d3472a2	0.044054635
54	0xbbb59429	-0.0055413437
55	0x3dbc1336	0.09183352
56	0xbd2a45dd	-0.041570533
57	0x3ddbf23c	0.10739562
58	0x3dcbeda6	0.09957437
59	0x3d802001	0.06256104
60	0xbdf57d9c	-0.11986849
61	0x3c4feabc	0.012690242
62	0x3d1d4310	0.038394034
63	0xbd92ab1a	-0.07161541
64	0xbdd30687	-0.10303979
65	0x3d3eea0d	0.046609927
66	0x3dbd2265	0.09235076
67	0xbd0db0b0	-0.03459233
68	0xbd8e9cff	-0.069635384
69	0x3d99d4ef	0.07511317
70	0x3d83cb23	0.0643523
71	0xbda90787	-0.08253389
72	0x3dd9a5d9	0.10627336
73	0x3dbd866a	0.09254153
74	0x3dbfaf6e	0.093596324
75	0xbc705611	-0.014668957
76	0xbba5b704	-0.0050572176
77	0xbdce8c54	-0.10085359
78	0xbd552b29	-0.052043114
79	0xbdf92dfd	-0.12166975
80	0xbe018eb6	-0.12652096
81	0xbdf41e1c	-0.119198054
82	0xbd714a43	-0.058908712
83	0x3d8e4222	0.069462076
84	0x3b8c7c54	0.004287282
85	0xbd737944	-0.05944182
86	0x3dc46f2d	0.095915176
87	0xbe15ed3f	-0.14641283
88	0xbc3166d4	-0.010827739
89	0x3c839ad5	0.01606504
90	0xbd6e1c81	-0.058132652
91	0xbc4b7940	-0.012419045
92	0x3dd19294	0.10233036
93	0x3d143a34	0.03618832
94	0xbcb08eb1	-0.021552416
95	0xbe08787e	-0.13327214
96	0x3b1cfa29	0.0023952818
97	0xbda10b23	-0.07863452
98	0xbd2d5316	-0.042315565
99	0x3d85426f	0.06506812
100	0xbcbf795f	-0.023373304
101	0xbc9f7e6d	-0.019469464
102	0xbdffef29	-0.12496788
103	0xbcd2fc04	-0.025754936
104	0xbd72777b	-0.059195977
105	0xbb879100	-0.0041371584
106	0xbdd30ebf	-0.10305547
107	0xbcb888a2	-0.02252609
108	0x3c63ae0f	0.013896479
109	0x3dcaeb90	0.09908211
110	0x3c1cae62	0.0095630605
111	0xbd9a51c6	-0.07535128
112	0xbcde65bf	-0.027148126
113	0xbd142ab6	-0.036173545
114	0xbd918736	-0.071058676
115	0xbddcb466	-0.10776596
116	0x3d3e8251	0.046511
117	0x3c06b96e	0.008222921
118	0x3d9ff6d6	0.07810752
119	0x3d053869	0.0325245
120	0xbdb27624	-0.0871394
121	0x3d0e576a	0.034751333
122	0x3d8c3ace	0.068471536
123	0x3dbe534c	0.09293231
124	0xbb72c823	-0.003704556
125	0xbdd1bf2c	-0.10241541
126	0x3c69c8ef	0.014269098
127	0xbcd01eec	-0.02540537
128	0xbddbd036	-0.107330725
129	0x3d71545e	0.05891835
130	0xbe333fcc	-0.17504805
131	0xbe4ff680	-0.20308876
132	0x3e141abe	0.14463326
133	0xbc70e548	-0.014703102
134	0x3dc8fd3f	0.09813928
135	0x3d73aeeb	0.059492987
136	0x3d0935ae	0.03349846
137	0xba4ac6fa	-0.00077353383
138	0xbd0b51de	-0.03401362
139	0x3e19b2e5	0.15009649
140	0xbdc66977	-0.096880846
141	0xbd02a743	-0.031897794
142	0xbd7b3e8a	-0.06133894
143	0xbd6a8339	-0.05725405
144	0xbd217817	-0.039421167
145	0xbe0b7c99	-0.13621749
146	0xbe4a08af	-0.19729875
147	0x3cf70c4f	0.030157236
148	0x3c08a223	0.008339438
149	0xbd824981	-0.06361676
150	0xbe2433df	-0.16035412
151	0xbad777a4	-0.0016438854
152	0x3e302a29	0.17203583
153	0xbdede062	-0.11615063
154	0xbdf886ed	-0.1213511
155	0x3e3f9562	0.18709329
156	0x3da27fb5	0.079345144
157	0xbe0c3efe	-0.13695905
158	0xbde4a1b8	-0.11163658
159	0x3c8580db	0.016296795
160	0x3deb20f9	0.114808984
161	0xbe48c235	-0.19605334
162	0xbe400e37	-0.18755423
163	0x3e2fd633	0.17171554
164	0x3ba65677	0.0050762254
165	0xbd73543f	-0.059406515
166	0xbdd430f8	-0.103609025
167	0xbe2f610a	-0.17126861
168	0xbe4d9bee	-0.20079014
169	0x3dc9bb21	0.09850145
170	0x3e583b8a	0.21116462
171	0xbd36d96e	-0.04464095
172	0x3e27c7f9	0.16384877
173	0xbe79b3cd	-0.24384995
174	0xbde903bf	-0.11377668
175	0x3da12062	0.07867505
176	0x3e1b1e35	0.15148242
177	0x3dbee0f5	0.09320251
178	0x3afb4711	0.001917096
179	0x3c8529d6	0.0162553
180	0x3d83f2c1	0.06442786
181	0x3cb6818e	0.022278573
182	0xbe03f3e4	-0.12886006
183	0xbd0e2549	-0.034703527
184	0xbd6f3ada	-0.058405735
185	0x3dd85114	0.105623394
186	0xbdc5bf77	-0.0965566
187	0xbe1b4a43	-0.15165047
188	0x3e1346ab	0.14382426
189	0x3d28d878	0.041222066
190	0x3deed330	0.116613746
191	0xbe430f60	-0.19048834
192	0x3d0f3cf3	0.034970235
193	0xbcd019fd	-0.025403017
194	0xbb989e07	-0.00465751
195	0x3e4465da	0.19179478
196	0x3d5294b1	0.051411334
197	0x3db6a4d8	0.0891816
198	0xbe1bf93a	-0.15231791
199	0xbe04aaa9	-0.12955727
200	0xbc96a55b	-0.018389395
201	0xba929eee	-0.0011186281
202	0x3d4d0d92	0.05006177
203	0xbe290b07	-0.16508113
204	0xbe440ef7	-0.19146334
205	0x3d8738f8	0.06602663
206	0xbd998515	-0.074960865
207	0xbdcb95bb	-0.09940668
208	0xbdb5e348	-0.08881241
209	0x3ba5511c	0.0050450694
210	0x3e1987e3	0.14993243
211	0x3d66ac4d	0.056316663
212	0xbd050db0	-0.032483757
213	0x3da2e4c1	0.079537876
214	0xbe19592d	-0.14975424
215	0x3d9beb4a	0.07613237
216	0xbd71173f	-0.05886006
217	0x3e15b543	0.14619927
218	0xbe7688bd	-0.24075599
219	0x3dfbdace	0.12297593
220	0x3da790ba	0.08181901
221	0xbe523e68	-0.20531619
222	0x3e503689	0.20333304
223	0x3e037607	0.12837993
224	0xbdbafcb8	-0.091302335
225	0x3df8338d	0.121192075
226	0xbd498949	-0.04920319
227	0x3d91d3e0	0.0712049
228	0xbdbdd2a1	-0.0926869
229	0xbe24b201	-0.16083528
230	0xbd27d23c	-0.04097198
231	0x3e26b64f	0.16280483
232	0x3ca4bd12	0.020109687
233	0xbdfc315d	-0.12314103
234	0x3de94b1b	0.11391278
235	0x3bb562ed	0.0055354745
236	0x3ddb5e4d	0.10711346
237	0x3dfc207b	0.12310883
238	0xbdebef38	-0.11520237
239	0xbe5f4003	-0.21801762
240	0xbc8f6a3e	-0.017506715
241	0x3e1ae248	0.15125382
242	0x3df7b73c	0.12095496
243	0x3d0f10cf	0.03492814
244	0x3e639698	0.22225416
245	0x3e231255	0.15924962
246	0x3a986cf9	0.0011629156
247	0x3dc0e198	0.094180286
248	0x3dd5e29e	0.104436144
249	0xbd0654b0	-0.032795608
250	0x3e302c1b	0.17204325
251	0x3db31713	0.087446354
252	0xbd307e9f	-0.043089505
253	0xbcadec82	-0.02123094
254	0x3dc0eca2	0.09420134
255	0xbe596d8e	-0.21233198

out_policy.bias f4 [4]
0	0xbca42848	-0.020038739
1	0xbd7467ce	-0.05966931
2	0x3d931811	0.07182325
3	0x3d9fd97e	0.07805155
