PPO/weight/ppo_act_model_1000v1.pth (torch, 75396 bytes, 6 tensors)

shared_1.weight f4 [128, 8]
00000000: af8d a4be ef9d 8739 7d7a 01bd 932a 6fbe
00000010: e1ef 1fbf 2785 fcbe d0fa ad3c 21e0 023e
00000020: 73d6 7fbe 2c47 00be 9a7f 4e3e c21f ab3e
00000030: 5e83 c7be 4c3e f73c 6025 a83e eea4 ddbd
00000040: e0f8 d93d 716a 493e aba3 8abd f86f b13d
00000050: c0d6 1a3f 9be3 c83d 2388 9c3e a613 bb3e
00000060: 5ea9 cabe fbf8 6c3e b9c1 893e 5e10 863f
00000070: c38f 36bd 49ec 153d 2927 55be 969f 6bbe
00000080: bd64 4bbe 60ea 8cbd d796 ce3c 573a 2a3f
00000090: abaa 113e d2bd 71bd 3a38 9a3d f951 b7bd
000000a0: aa76 233e b0a9 483e a073 a4be 02e8 143f
000000b0: c794 f93e 214b 64be 2492 fe3d b829 5a3e
000000c0: 5b4e 953e 8df1 7b3e 6b91 723e 6da1 44bf
000000d0: 9822 b53e 520b ea3e ae41 813e b649 e83d
000000e0: ab24 7cbe 64bf 563e 8bdb 98be e7d0 9a3d
000000f0: 1776 b6be db49 0bbf 709d 86be 6c6f fd3c
00000100: cb39 a33e e4fb 8ebd 2686 a2be 00a5 0abf
00000110: 3715 c83e 4948 2e3e 0cbb c1be 4b88 51bd
00000120: ee2d a6bd 1cf0 aa3e e1aa f8bd 686d 2cbf
00000130: e134 543e 9288 7abd 4341 6dbd 0669 8abd
00000140: 52f8 ab3e a095 b83d a33b 013d 9d1a fbbe
00000150: c6d4 f43e 086c a93e 4495 12bd f246 b8be
00000160: 9fdf a2be 590c ae3d d5d9 98be 8cc0 3b3f
00000170: 66db fe3e fb8d 833d 4044 a03e 57c8 6b3e
00000180: 2e78 803e a296 b43d 552a 98be b387 4d3f
00000190: c59a 83be a6c0 433e 7104 1abd 9e24 ca3e
000001a0: e221 67bd ca40 8d3d 9fd4 66be 86d4 2dbf
000001b0: 732f f9be a023 34be e4dc 783d 25f5 e03d
000001c0: 3899 853e 1b1c 34be f4dd 0abd f9a9 1b3f
000001d0: ee75 f7be e67d debe 2008 8e3e be81 433e
000001e0: da2e c9bd 27d5 0fbe 5b71 9dbe c4c6 083e
000001f0: 5ef2 163f f9f5 1abe acfd 343d 5acf 783e
00000200: 0680 923e 7678 743e 880a 813e 4968 0abf
00000210: bd6e 0b3e 0b81 bc3e c457 7cbe 21c2 433e
00000220: 7cdc b6bd 8554 dbbe 786b eebe 4739 e3bd
00000230: 6998 e4be 09ba db3e 571d 57be 2dc1 63bd
00000240: 010d 853e c558 13bd 4884 ab3e 9efe 1bbf
00000250: b222 c7bd 1be3 adbe f11f e13d ecdf 7c3c
00000260: b1f3 bd3e e9eb 87be 16ff ffbd c045 5a3e
00000270: dbcd e03e 238b 833e f9cb 51be 95a7 803e
00000280: 38e0 86bd 158a 9c3e 2efa bebe 2b23 3d3f
00000290: 1ae9 323f 2d69 07be ab20 a63e 1d7b 473e
000002a0: c65a 8fbc 363a 08be 358c 2a3e d9b7 893f
000002b0: 630b 3c3c 3a1f 783e 6e40 863e 5179 723e
000002c0: cfc6 92bc 5e53 1a3e 55f8 4dbe 8ecf 253f
000002d0: 776d 9f3e a3d4 a93e 3786 933e 5d80 9a3e
000002e0: e8a5 ccbd 52ca 14bd ce7f 73be c471 033f
000002f0: 1f01 233f eca6 b2bd bce8 48ba 96b0 4dbe
00000300: cb3b debe 6fd8 613e 7e89 883e 2847 343f
00000310: 23fb 373e 7c66 12be f784 56be f364 68be
00000320: 058e 97be 91b3 763e 3520 b0be bf45 12bf
00000330: 7d1e 0c3f 8de9 d03e d1d1 35bc 184d b0be
00000340: e0c1 84be e178 1e3d 1706 ddbe 612c 25bf
00000350: 9152 c9be f52b 0ebe a6d8 7c3d ca8f 5cbe
00000360: 1d0c 46be 3394 74bd 150e 833d 2bee 443f
00000370: 4907 cd3e e2a0 79be b588 ba3e 2d5c b13e
00000380: a8ce 40bd 80eb 4e3e 37e4 4cbe c967 543f
00000390: d598 e4bd 2c3a b4be dccf 0dbe 64e6 bfbd
000003a0: 423a 9bbd c536 4d3e 10c7 4fbe 8b38 263f
000003b0: fb79 e63e c81d 8bbe 41d0 823e a494 3b3e
000003c0: 3566 653e 25f2 cebe 2cbc 023d 42d5 133f
000003d0: e0dc bbbc fe79 253e 3eb3 6bbe a2b3 a93d
000003e0: c86c bf3e 76f5 eebd 5d26 ab3d 5fb7 d73e
000003f0: ba80 d8be 115a 873d a3d5 823e a454 13bd
-0.32139346 0.00025866876 -0.031610955 -0.23356085 -0.624754 -0.49320337 0.02123776 0.12780811
-0.2498415 -0.1252715 0.20165864 0.33422667 -0.38967413 0.030181073 0.32841015 -0.108224735
0.10643172 0.1966951 -0.067694984 0.086639345 0.6048393 0.09809037 0.30572614 0.36538428
-0.39582342 0.23141854 0.2690561 1.0473745 -0.044570696 0.036602292 -0.2081572 -0.23010096
-0.19862647 -0.06880641 0.02521841 0.6649527 0.14225261 -0.059018917 0.075302556 -0.08951182
0.15963235 0.1959598 -0.32119465 0.58166516 0.4874632 -0.22294284 0.12430218 0.21304977
0.29161343 0.24603863 0.23688285 -0.76808816 0.35377955 0.45711762 0.25245422 0.11342184
-0.24623363 0.20971447 -0.29854998 0.07559376 -0.3563697 -0.5440957 -0.2629199 0.03093692
0.3188003 -0.06981638 -0.31742972 -0.5415802 0.39078686 0.17019762 -0.37838018 -0.05115537
-0.08114229 0.33386314 -0.121419676 -0.6735444 0.20723297 -0.0611654 -0.057923567 -0.06758313
0.3358789 0.09012914 0.031551015 -0.49043742 0.47818583 0.33090234 -0.035786882 -0.35991627
-0.31811234 0.08498449 -0.29853693 0.7334068 0.49776763 0.06423565 0.3130207 0.23025642
0.2509169 0.088177934 -0.29719797 0.80285186 -0.25704017 0.19116458 -0.037601892 0.39481062
-0.056428798 0.06897123 -0.22542046 -0.6790241 -0.48669013 -0.17591715 0.060757533 0.109842576
0.2609346 -0.17588846 -0.033903077 0.6080623 -0.4833216 -0.43455428 0.27740574 0.19092461
-0.09823389 -0.14046155 -0.30750546 0.13357073 0.5896357 -0.15132894 0.044187233 0.24297848
0.286133 0.23874077 0.25203347 -0.54065377 0.13616462 0.36817202 -0.24642855 0.19117023
-0.08928773 -0.4283792 -0.46566367 -0.11094909 -0.4464753 0.4291537 -0.21007286 -0.05560415
0.25986484 -0.03597333 0.3349936 -0.6093539 -0.097234145 -0.3396233 0.109924205 0.0154342465
0.37099984 -0.26547173 -0.12499826 0.2131567 0.43907055 0.2569209 -0.20487966 0.25127855
-0.06585735 0.30574098 -0.37300247 0.7388179 0.69886935 -0.13223715 0.324468 0.19480558
-0.017499339 -0.13303456 0.16655047 1.0759231 0.011477324 0.24230662 0.2622103 0.23679091
-0.017917065 0.15070865 -0.20114262 0.6476983 0.31138203 0.3317004 0.28813335 0.30176058
-0.099925816 -0.03632576 -0.23779222 0.5134547 0.63673586 -0.08723244 -0.00076640747 -0.20086893
-0.43404993 0.22055219 0.26667398 0.70421076 0.17966895 -0.14296907 -0.2094916 -0.22694759
-0.2960054 0.24091937 -0.34399572 -0.57137674 0.5473402 0.40803185 -0.011097387 -0.34433818
-0.25929165 0.038689498 -0.4316871 -0.6452084 -0.39320806 -0.13883956 0.06173005 -0.21539226
-0.19340558 -0.059711646 0.0639917 0.76925915 0.4004462 -0.24377778 0.36432424 0.34640637
-0.047072083 0.20207024 -0.20008932 0.82970864 -0.11161963 -0.35200632 -0.13848823 -0.093701154
-0.07579471 0.20040424 -0.2029078 0.6493003 0.4501494 -0.2717116 0.2554951 0.1831842
0.2240227 -0.40419117 0.031917736 0.5774728 -0.02293247 0.16159818 -0.23017594 0.08286215
0.3738768 -0.11667912 0.083569266 0.4213209 -0.4228571 0.06608976 0.25553617 -0.03596939

shared_1.bias f4 [128]
00000000: d138 0ebe 714d 38be 5ba3 99be ca57 89be
00000010: 7d7e 7bbe 1569 37be b266 05be 9cab dd3e
00000020: 0f1d 923e 2b31 973e ba6a 043e ed9f 28bd
00000030: a3cb 5f3e 0b2e 25be 8b1f 553e 7e1d fd3d
00000040: 17b9 b93e ada1 0bbd 9a22 42be 11df 3a3d
00000050: e5b6 9b3e 2c38 253e 3e77 35be 67f4 ff3d
00000060: 7a5c 11bd f31a bcbd 1137 9e3c b8b8 713e
00000070: 3f8e b53e 2145 e239 d1ce 8e3d 4e58 3fbe
00000080: efa5 33be 998b 243e 2b96 703e 0c56 56be
00000090: 7820 7d3e 5782 463c 6e64 f8bd 195d a13e
000000a0: bc87 5c3e f438 01be 8753 563e 30c6 0dbe
000000b0: 8770 c83e 3cb2 a33e 6463 ca3e 5773 953e
000000c0: 7c01 ccbd ddec a93d b841 00be 9a1e 853e
000000d0: d2e4 29be a732 7abc c7d3 1ebe cb8b 833e
000000e0: ab21 ce3e 5133 aa3e edb8 06be 47ed d23e
000000f0: 6d30 e73e 2ca9 a43e 07c6 e83c 9336 993d
00000100: 2663 ad3e be32 633e 930b 143e e60b 3dbe
00000110: bcfa c43e ff74 9e3e 4c2a 96bd f014 af3e
00000120: 6eae 083e 8bb4 de3d a1ba a33d 95e2 9cbc
00000130: bfc2 a03e 2b86 8f3e f634 04be 3eaa 4bbe
00000140: 601d c6bc e671 7bbe 65c1 d13e f7e2 1c3e
00000150: ed4c b2bd e79d f63d 3c87 c7bd a700 8e3e
00000160: fd5a 0bbe 2e41 bc3d ef41 593d 2d0a d93e
00000170: f2fa 45be 1040 2abd 0087 d33d 28a5 be3d
00000180: 7fb1 0abe 7e12 54bd 6d6c 4ebd 0d49 803e
00000190: 5be9 003e eb8a ac3e bc53 6d3e e780 c83e
000001a0: e80b 3dbe 83ab 903e 3171 ce3d a19b a43d
000001b0: ab52 b53e 9788 7dbe b9e2 7ebd e68c 46be
000001c0: 5f9d 2e3e 2df6 41be 5511 d6bd f361 df3d
000001d0: dafb f4bd 3cfb 983e 12e7 c33e 7f54 e9bd
000001e0: 9c1b 7bbd 9afb 36be a414 6c3d 45ed 5d3e
000001f0: 005e 19bc 841b a83e e11b 4c3e 485d c33e
-0.13888861 -0.17998292 -0.30007443 -0.2682479 -0.2455997 -0.1791118 -0.13027456 0.4329499
0.28537795 0.295297 0.12931338 -0.041168142 0.21855025 -0.16130845 0.20812814 0.12359141
0.36274025 -0.034089733 -0.18958512 0.04562289 0.30412975 0.16134709 -0.17721269 0.12497788
-0.035488583 -0.09184828 0.019313367 0.23605621 0.35460088 0.00043157584 0.06973041 -0.1868603
-0.17543767 0.16068877 0.23494785 -0.20931262 0.24719417 0.012116036 -0.121285304 0.3151634
0.21536154 -0.12619382 0.209303 -0.13845134 0.39148352 0.3197192 0.39528954 0.2918956
-0.099612206 0.08297131 -0.1252507 0.2599991 -0.16591194 -0.0152708655 -0.15510474 0.2569259
0.40260062 0.33242276 -0.13156481 0.41196653 0.45154133 0.32160318 0.02841474 0.07481112
0.33864707 0.22187325 0.1445754 -0.1846157 0.38472545 0.30948636 -0.07332286 0.34195662
0.1334779 0.108742796 0.07994581 -0.019151011 0.3139858 0.2803205 -0.12910828 -0.19889161
-0.024183929 -0.24555168 0.4096786 0.15320955 -0.08706079 0.12041836 -0.09742591 0.27734873
-0.13608928 0.091921195 0.053041395 0.42390576 -0.1933401 -0.041565 0.103284836 0.09308845
-0.13544272 -0.051775448 -0.05039637 0.25055733 0.12589018 0.33699736 0.23176473 0.39160845
-0.18461573 0.28255853 0.10080183 0.08037496 0.35414633 -0.24759136 -0.06222794 -0.19389686
0.1705222 -0.18941565 -0.104525246 0.10907354 -0.119620994 0.29879177 0.3826223 -0.113930695
-0.061305627 -0.17869416 0.057636872 0.21672542 -0.00936079 0.32833493 0.1993251 0.38157105

shared_2.weight f4 [128, 128]
00000000: 639e 64be 2154 6bbb 2e7b 473e a36d 45bd
00000010: 1213 babd 1856 893d 6a13 823d 3830 b33d
00000020: 87b3 683d 3f33 ad3c 3e16 a23d 92cc 4d3d
00000030: 9a9c 9b3d d31e bfbd 86a3 39be 63e0 f63d
00000040: 5fe6 843d a88b 32bc e14e cbbd 962c b63d
00000050: 5fb9 e13d 4ea4 223e 55d6 4f3d 05e3 d13d
00000060: 43ce c43d ec62 9f3d ea62 d3bd 9279 083e
00000070: ef69 d63d bba8 323d 762c 193d 6a46 08bc
00000080: 9204 c63c d6ab 973d 6086 43be c489 7a3e
00000090: 2c95 eabd 454d 1abd c459 e23d ae35 a63c
000000a0: 4668 3dbe 1be5 363d 8200 e53d a369 ad3c
000000b0: 3d4b e43d 2cbe 913d bcfb c13d 76d8 94bd
000000c0: 1ab4 46bd 9a7f bab9 37c2 dfbd 65a0 8a3d
000000d0: c037 363c a92c 60bd c267 213d a249 aebd
000000e0: 4da4 b33d 1c2d 023e debc 42bd 272d 3d3d
000000f0: bb0f c93b 0504 59bd a386 ccbc e27d 41bd
00000100: 0381 b23d 9be6 d73d 508e 1f3e 0422 1e3c
00000110: 9adf 003e af0b df3d 9192 13be a49a ec3d
00000120: 4151 1cbe 7873 cbbd 53b5 e13d ded9 27bd
00000130: edd5 dcbd a605 19be 00df 873d 3d1b 393d
00000140: 8070 0cbe 1475 3d3d e730 b93c fabd 713d
00000150: b5ae a43d 31c3 4b3d 7006 14bd 55b2 27be
00000160: 2a76 66be 89d6 e439 5acd a1bd b6a9 8ebd
00000170: 1c48 2b3d e9e1 0cbc 3c38 26bd 40a3 2a3e
00000180: bf04 2c3e 287f 4d3e cd9e 303e 7c8b 833d
00000190: 29ce d63d 2680 db3d d9de dbbc 13f3 553d
000001a0: c2a8 bb3b 8eb2 2c3d 02c9 e13d d4cc 373e
000001b0: ed2a 4fbd fc2b 37be cf9d 26bc 1673 f6bd
000001c0: 3b1e 1ebe 0260 473d 8dbe e33c 61e7 15be
000001d0: 6ff2 03be 7979 af3d a1c0 7dbd b2bd b43d
000001e0: 0552 94bd 169a 33be 7d5d f5bd 5417 d73c
000001f0: abfa 223e 6a75 bf3d 85d7 21bd a4c4 02be
00000200: 28cb 983d 32ff 3fbd 4f7f f7bd 1607 a1bd
00000210: 41ba 86bd 3780 03be 4eba b3bc 8179 953d
00000220: a49b 03bd 76ec 963d c7fc f5bc 2292 87be
00000230: 7d18 c53c 77b9 863e 244b 563d 1d23 cebd
00000240: 428b a23c b41f 91bd 9f3f f23c c997 fabd
00000250: 381c efbc 291b 42be 00e7 36be 69c7 6ebe
00000260: faae 0cbc 54a2 2abd d5c8 713e da42 bdbd
00000270: f0bd 3c3d ba29 90bd 27b9 babd 785a 94bd
00000280: 4949 54be 7828 0bbe 9e45 8a3d c196 84be
00000290: cd44 d53d d892 463c 6db0 12bc c2b3 df3d
000002a0: 9f39 623d aa7b edbc 30f7 403d 2a7b 30be
000002b0: 724b 7e3d 56e4 283e 88ac ebbc b916 0a3e
000002c0: 7976 4fbe 956e 1abe 43d7 933b fab0 073d
000002d0: db8d 933d 7a1e b13d 418b 88be 98d7 de3d
000002e0: b483 7fbd a008 ddbd 389c 2ebe 3330 0f3e
000002f0: f15f 903d 4f8e 653e d9be 55be 9e58 f5bc
00000300: 98f9 11bd 2e20 6abe 8547 58be 34ad fabd
00000310: c785 86bc 9ff4 eb3b 79cf 333d 6ebb 2c3d
00000320: 5e85 183e 0c91 073e e057 73be 2bbf c33d
00000330: ab15 f63d 0383 613e 213e f53c c9cc 94bc
00000340: aacb 543e 60dd 74bc 747a e73d e4b6 6dbe
00000350: f61e a33c 240e 973d a92f 9fbd bece 503e
00000360: 7e04 4b3e 68ca 933c d9cd e43d 8564 143e
00000370: 1853 e93b f6af 97bc fa32 70bd b6d5 99bd
00000380: dfde 0bbe f897 d1bd d16c dfbd 63b1 283d
00000390: b0fe 0c3e 650a cc3b 9cd3 183e 8389 34be
000003a0: f69b e23b ebf7 0c3c 44a9 85bd 3461 95be
000003b0: 0460 b93d a59f 043e 114f 7d3c 40bc da3d
000003c0: 0d6a 213e d3af 85be 829c 873d f5a7 433e
000003d0: e43a 303e 67f2 4ebd 62ec 293e 5b66 033d
000003e0: 8f29 25be f3e3 0a3e 7cae 843e 80fa 503e
000003f0: 4fde 98bd 1704 8abd d962 0a3d af15 a8bd
-0.22326045 -0.00359083 0.19480583 -0.04820026 -0.090856686 0.06705874 0.06351359 0.08749431
0.056811836 0.0211426 0.079143986 0.05024392 0.07598229 -0.09332051 -0.18128785 0.12054517
0.06489252 -0.010897554 -0.09927154 0.08895223 0.11021685 0.1588299 0.050741512 0.10248379
0.09609654 0.0778254 -0.10321601 0.13327625 0.10469424 0.043617945 0.037395917 -0.008317569
0.024172101 0.07405822 -0.19094229 0.24466616 -0.114542335 -0.037671346 0.11052278 0.020289268
-0.18496808 0.044652086 0.111817375 0.021168536 0.11147163 0.071163505 0.09471843 -0.07267849
-0.048511602 -0.00035571755 -0.109257154 0.06768874 0.01112169 -0.05473009 0.03940559 -0.08510138
0.08771572 0.1271252 -0.0475434 0.04618564 0.0061359084 -0.05298235 -0.024966544 -0.04723919
0.08716013 0.105420314 0.15581632 0.009651665 0.12585297 0.108909 -0.1441138 0.11552933
-0.15265371 -0.09934133 0.11020913 -0.04097926 -0.107829906 -0.14943561 0.06634331 0.045191992
-0.1371479 0.046254233 0.022606326 0.059019066 0.08041135 0.049746696 -0.03613895 -0.16376622
-0.22506014 0.0004364739 -0.07900496 -0.069659635 0.041816816 -0.008598783 -0.040580973 0.16663837
0.16798685 0.20068038 0.17248078 0.06423089 0.10488541 0.10717802 -0.02683966 0.052233767
0.0057269046 0.04216247 0.11024667 0.1794923 -0.050578047 -0.17887872 -0.01016946 -0.1203367
-0.1544122 0.048675545 0.027800823 -0.14639045 -0.1288545 0.08568091 -0.061951283 0.08825244
-0.072422065 -0.17539248 -0.11980722 0.02625624 0.15915935 0.09348567 -0.039512176 -0.12770325
0.07460624 -0.046874233 -0.12084829 -0.0786268 -0.06578494 -0.12841879 -0.021939423 0.07298566
-0.032130852 0.0736932 -0.03002776 -0.26478678 0.024059528 0.26313373 0.052317753 -0.10065291
0.019841794 -0.07086125 0.029571353 -0.12235982 -0.02918826 -0.18955673 -0.17861557 -0.23318256
-0.00858664 -0.041658714 0.23611768 -0.092412665 0.046079576 -0.07039209 -0.09117346 -0.07243818
-0.20731081 -0.13589656 0.0675156 -0.25896266 0.10413513 0.012119971 -0.008953196 0.10922958
0.055230733 -0.028989632 0.047110736 -0.17234483 0.06208367 0.16493353 -0.028768793 0.1348523
-0.20260037 -0.15081246 0.004511745 0.033127762 0.07204791 0.08648391 -0.26668742 0.10880965
-0.06238146 -0.10792661 -0.1705178 0.1398323 0.07049549 0.22417568 -0.20873584 -0.029949483
-0.03563842 -0.22863838 -0.21121033 -0.12240067 -0.016421212 0.007200792 0.043899033 0.042170934
0.14894626 0.13238925 -0.2376399 0.09557947 0.120158516 0.22022633 0.029936852 -0.018164055
0.20780817 -0.014945358 0.11302653 -0.23214298 0.019912224 0.07375744 -0.07772762 0.20391366
0.19825932 0.01804085 0.11172075 0.1449147 0.0071205013 -0.018516522 -0.058642365 -0.07511465
-0.13659237 -0.10234064 -0.10909427 0.041184794 0.1376903 0.006226825 0.14924473 -0.17630582
0.0069155646 0.00860403 -0.065264255 -0.29175723 0.09051517 0.12951525 0.015460745 0.10680437
0.15763111 -0.26110706 0.06621648 0.1910704 0.17209965 -0.05052414 0.16594079 0.032080036
-0.16129135 0.13563518 0.2591437 0.20408058 -0.07464277 -0.06739061 0.033785675 -0.08207261

shared_2.bias f4 [128]
00000000: 1087 6e3c 7109 ab3c 20b2 35bd 562a b73d
00000010: ba3a 23bc 275f cabc e402 eb3d a755 b03a
00000020: a175 c33d e87d 123e df1a a93d 96af a23d
00000030: d725 d23d 8dd5 213d 18a4 c83d 549b 533c
00000040: 64c5 60bd f0b3 77bc 206b 723c 8a29 b63d
00000050: 62bd b63d c0b2 06bc 42dc 8839 bebd 0b3e
00000060: 191e e93c 1293 763d bf31 ad3d de8e 143d
00000070: 89d9 293d 1a23 7c3d 33bb 06bd fc1f cdbc
00000080: 891f 343d 5e6d e73c a0c6 073c 8316 a13d
00000090: 5b06 ea3d 7ec9 573d 6fea 413d 053d 0c3e
000000a0: 4f2b 993d a10a d33c 25cf a23c 9273 203d
000000b0: 774f f83c 049b ab3d 602e 343b 9895 953d
000000c0: b8d3 fa3d ae76 0a3d 9ffb 063e 5193 1c3d
000000d0: 115b ee3d c898 ca3d 2554 cc3d a186 2fbc
000000e0: 5e68 193e fd9f 373d c72b 043d 3427 2b3d
000000f0: 4668 ab3d a7e0 663d 9c3e 323d bc33 c23d
00000100: 1135 7c3b f73a 88bc 6319 6fbd df34 1a3d
00000110: a4d5 853b 6f26 9a3d 7b7f d43d 7dd3 b63c
00000120: 98ac b0bc c8db f33c 0ff5 123c d460 663d
00000130: 354f 0d3e 714c 273e 8df8 f03d 799d a53d
00000140: 6a87 133d 8799 c43c a638 ca3d 2766 cdbc
00000150: e069 f93d 1dfe ad3c 9861 7f3d df26 753d
00000160: 4d58 a33d 3333 c43b b6f2 983c a434 4b3d
00000170: 7144 8bb9 5f67 ab3c 3544 b63c 2dd2 043e
00000180: f295 703d b165 c03c 49c5 693d 5575 103d
00000190: 6b6e 643d 2f7f 833d 67f9 113e 112c 153d
000001a0: 411c 04bc 1b9b 933d b4c8 dc3d 38fc 94bc
000001b0: 24de 853d 844d ff3d 7243 c63d f766 593c
000001c0: 5f4f 0b3e 01a4 933d 4ec5 aa3b 211b d23d
000001d0: 94fd 423d d24e ff3d 4d1f ae3d 755b d63d
000001e0: f906 e23d 960f c43d b5c5 473d 655a deb9
000001f0: f3a6 ab3d 95df db3d cbbc a63d e852 d03c
0.014558569 0.020878525 -0.044359326 0.08943622 -0.009962732 -0.024703575 0.11475161 0.0013453261
0.0954392 0.14305842 0.082570784 0.079436466 0.102611236 0.0395103 0.097969234 0.012915451
-0.054875746 -0.015118584 0.014796048 0.08894642 0.08922841 -0.008221328 0.00026104046 0.136466
0.028456734 0.06019885 0.08456754 0.03626906 0.041467223 0.061556913 -0.03289337 -0.025039665
0.043975387 0.028250393 0.008287102 0.07865622 0.114269935 0.052682392 0.047342714 0.13695152
0.074789636 0.025761904 0.019874165 0.039172716 0.03031133 0.08379176 0.0027493462 0.07303923
0.122474134 0.033804588 0.13181923 0.03822643 0.11638463 0.09892422 0.09976987 -0.01071325
0.14981219 0.04483031 0.03226831 0.041785434 0.08369498 0.05636659 0.04351674 0.09482524
0.0038483778 -0.01662968 -0.05837382 0.037648078 0.004084306 0.07526862 0.103758775 0.022317642
-0.021566674 0.029767886 0.008969559 0.056244686 0.13799746 0.16337754 0.11766157 0.08086676
0.036017813 0.023998989 0.09874086 -0.025073124 0.12178397 0.021239335 0.062348932 0.059851523
0.079758264 0.0059875487 0.018670421 0.04961075 -0.0002656314 0.020923315 0.02224932 0.129708
0.05873675 0.02348599 0.05707291 0.035268147 0.055769365 0.06420743 0.14255296 0.036418978
-0.008063377 0.072073184 0.107804686 -0.018186674 0.065365106 0.12465957 0.09680833 0.013269178
0.13604496 0.07209016 0.005211509 0.10259081 0.047605112 0.12466206 0.08502064 0.10466663
0.11036486 0.09573285 0.048772532 -0.0004241049 0.083814524 0.10736004 0.08141478 0.025430158

out_policy.weight f4 [4, 128]
00000000: f8a8 53bd 83f9 7d3c e84c da3b a742 093d
00000010: 3795 a13d 63e4 b63d 2773 81bd c46b 80bd
00000020: 3648 3f3e f3c2 f5bd 1d0f ed3c 9c22 babc
00000030: b96a 473b 3e38 123d f869 723d 96d0 983d
00000040: b31a 823b 1aca 58bd 3b16 4cbd 2d49 3b3d
00000050: b041 84bd 046d 503c 9261 83bd 911a 5dbd
00000060: 7dbe f5bc dc96 f2bc f6ea 02be 82b8 a83d
00000070: a472 e0bc 7123 63bd 1e7c 833d 3574 003d
00000080: ecec d1bd a1f8 c9bc e0b6 06be 34f9 a4bc
00000090: 78da 103e b7ce dfbd 8197 373d 1d9c 383d
000000a0: 4cf9 6ebc 6e9c c1bd 3714 9c3d 2750 e1bd
000000b0: f907 973d 28bf e0bd 7d4b 48bd 5f39 bcbd
000000c0: 2ad1 253d f866 df3d 4dad c3bd a8bb 56bb
000000d0: 0957 c43d 23bb 603d ac3b 86bd 9c36 ac3d
000000e0: cff9 9abd 357c 133e b6d2 893d ef01 f03d
000000f0: 66c3 dabd 58c2 9abb 3e57 383d 9b66 f7bd
00000100: 94b2 57bd e717 e03d bf9c 143d f4c2 08bc
00000110: e7da 8fbd 5d09 1d3e 073e b23d af22 91bd
00000120: c8ce 2c3e b7aa a93d 8734 1b3e 711b d63c
00000130: c15f 8cbc 59b4 d0bd 5e60 b6bd df00 fdbd
00000140: e55c 05be 7c06 fdbd 471d f83a dba2 073d
00000150: 601e 5d3d dbb3 1dbd 7144 013e 5b4d d2bd
00000160: 3e41 a1bd a12d a93d e121 41bd 67c1 4e3d
00000170: 1933 c13d 8c1b 473d ef50 163d d347 cebd
00000180: 75a4 bfbc 76b7 34bd 82e9 e3bd 07be 673d
00000190: 7bf1 c3bd e3d8 87bc 9a7b 10be 502d 18b9
000001a0: ebe2 5fbd f84d a0bc 7310 5fbd 0eb2 8bbb
000001b0: a368 e33c 0fb4 273e f235 b63d f950 5dbd
000001c0: a7ab 70bd 0d1f e3bc 6db2 a9bb 7513 cebd
000001d0: 2452 9c3d 8a7d 7e3d e732 c43d 3e2e 593d
000001e0: cf70 a0bd 6cd4 b03d 6d68 ae3d 516b 2b3e
000001f0: 016c 62bd 262b f2bd 5c25 1f3c 8c7c 683c
00000200: 19d8 94be a8c8 003e c826 94be c141 9cbe
00000210: 6b16 763e 34e2 d8bb 7539 b33d e150 4bbc
00000220: 613e df3d 733b 8a3c cba9 01be e084 6e3e
00000230: 721d 42bd 951a 35be 32ae 23be f367 ca3d
00000240: e89d 59be 3575 0b3d f718 8abe 4656 55be
00000250: a97d fbbb 87f1 c43c 7dd9 8bbe faa2 2cbe
00000260: d0fe 8c3e 4864 89be 8bb4 71be f6f9 e6bd
00000270: 37b2 823d dec7 6ebe d8e9 3ebd 8cd4 323d
00000280: 9b2d 033e 0aff b5be aed9 7cbe 91af 3d3e
00000290: 2ef7 2f3d b75b dcbd 8667 d6bd a6b5 8abe
000002a0: 75ef 8dbe a785 f23d 23ca 333e c3fa 26be
000002b0: c89f 833e c03d a5be 6853 31be 1732 923d
000002c0: 9f3f 543e e05d fe3d 40d7 08be f47d 083e
000002d0: 3bf8 943d ec6f ba3c 786e 32be f3b5 3bb9
000002e0: 64ff 1fbe e20b 413d aa7f 1cbe ceb4 16be
000002f0: 9403 f03d 1c13 bcbd 04ca 043e 6901 0cbe
00000300: a81c f13d ed36 88bb fce3 f63d 7c0b 853e
00000310: fa8e 803d 8c30 c63d e193 34be 2c6d a6be
00000320: 82c0 6fbc b873 1a3e 82f6 423e d05c a5be
00000330: 7055 95be a312 653d 23bb 10be b5eb 8abe
00000340: 0cc4 51be 5869 473d 4285 8a3e 8145 863d
00000350: 7191 3f3e 86d2 ecbd 4289 d2bd 6370 8cb9
00000360: 54a4 9abb 3883 113e 966f a9be cf7a 393e
00000370: 7ca6 c7bd 3ee6 90be 7a1d 873e 84f8 ef3d
00000380: 6de6 91be 92ac b13d a707 e0bd 1d4c 753e
00000390: 3144 85bd 863d 86be c13d 62bd 5fbb 763e
000003a0: 8124 a23b e577 8fbe ee0d 0f3e a6e5 ccbd
000003b0: 0aba f83d 0bb8 2e3e 5565 1ebb ca08 a4be
000003c0: 5494 29be 8475 ff3d 13af 163e 3f92 0a3d
000003d0: 1e1a 5c3e b6c9 833e c7d9 4e3e 0e09 e93b
000003e0: a594 093e e1a1 023e dd23 8a3e 08c5 1c3d
000003f0: 1a9c 8d3d 0196 5abe f9a3 213e 377f 89be
-0.051674813 0.015501383 0.006662 0.03351083 0.078897886 0.0893028 -0.06320792 -0.06270555
0.1867989 -0.12000074 0.02893787 -0.022721581 0.0030428602 0.035698168 0.05918309 0.074616596
0.003970468 -0.052927114 -0.049825888 0.045724083 -0.064578414 0.012721304 -0.064150944 -0.053980414
-0.029998058 -0.029612951 -0.12784943 0.08238317 -0.027398415 -0.05545372 0.06420158 0.031360824
-0.102502674 -0.024654688 -0.13155699 -0.02013836 0.14145839 -0.109280996 0.04482222 0.045070756
-0.014585804 -0.09453665 0.07621043 -0.11001616 0.073745675 -0.1097396 -0.048900116 -0.0919063
0.040482678 0.109083116 -0.09554539 -0.003276566 0.09586913 0.054865967 -0.0655435 0.084088534
-0.075671785 0.1440285 0.06729643 0.11719119 -0.106818005 -0.0047228746 0.045005076 -0.12080117
-0.05266054 0.10942059 0.036282297 -0.008347262 -0.07024174 0.15335603 0.08703237 -0.070866935
0.16875756 0.082845144 0.15156756 0.026136132 -0.017135503 -0.101906486 -0.08905099 -0.12353682
-0.13023718 -0.123547524 0.0018929624 0.033114295 0.053984046 -0.0385016 0.12623765 -0.10268661
-0.07873772 0.08260656 -0.04715145 0.05047741 0.09433574 0.048610255 0.036698278 -0.10072293
-0.023393849 -0.044120274 -0.111285225 0.05657771 -0.09567543 -0.016582912 -0.1410965 -0.0001451273
-0.054659765 -0.019568428 -0.054459047 -0.004263169 0.027759856 0.1637728 0.08897008 -0.0540323
-0.05875745 -0.027724767 -0.0051787407 -0.10062305 0.076328546 0.062131442 0.09580021 0.053022616
-0.078340165 0.08634266 0.085160114 0.16740157 -0.05527878 -0.11824636 0.009713497 0.014189851
-0.2907112 0.12576544 -0.28935838 -0.30518916 0.2403199 -0.0066187624 0.087511934 -0.01240942
0.1090057 0.01687405 -0.12662427 0.23292875 -0.047391362 -0.17685921 -0.15984419 0.09883108
-0.21251643 0.034047324 -0.26972172 -0.20833692 -0.007674892 0.02404095 -0.27314368 -0.16859046
0.27538157 -0.2683432 -0.23604028 -0.11278145 0.06381648 -0.23318431 -0.04660973 0.04365973
0.12810366 -0.35546142 -0.24692413 0.18524005 0.04296034 -0.10759681 -0.10468964 -0.27091712
-0.27721754 0.118418984 0.17557578 -0.16306596 0.2570784 -0.32273674 -0.17316973 0.0713846
0.20727395 0.12420249 -0.13363361 0.13329297 0.07273909 0.022758447 -0.17424953 -0.00017901491
-0.15624768 0.047130473 -0.15283075 -0.14717409 0.117194325 -0.09183332 0.12967688 -0.13672413
0.11773044 -0.0041569383 0.12055203 0.25985324 0.062772706 0.09677228 -0.17634536 -0.32505167
-0.0146333 0.15083206 0.19039348 -0.32297373 -0.29166746 0.055925976 -0.14133887 -0.27132955
-0.20484942 0.048684448 0.27054793 0.065562256 0.18707825 -0.11563592 -0.10280086 -0.00026786615
-0.0047192965 0.14210212 -0.33092946 0.18113254 -0.09748551 -0.2830066 0.26389676 0.117173225
-0.28496113 0.08675493 -0.109389596 0.23954816 -0.06507147 -0.26218814 -0.055234674 0.24094914
0.0049481993 -0.2802116 0.13970158 -0.100047395 0.12144859 0.17062394 -0.0024169285 -0.32037956
-0.16560489 0.12473586 0.14715223 0.033830877 0.21494338 0.2573983 0.20200263 0.007111675
0.1343561 0.12757064 0.26980487 0.03827384 0.0691454 -0.21346284 0.15785207 -0.2685487

out_policy.bias f4 [4]
00000000: dc43 11bd 78ff 7ebd 11f0 a43d 8616 a63d
-0.035465106 -0.062255353 0.080536015 0.08109765
