PPO/weight/ppo_crit_model_1000v1.pth (torch, 73870 bytes, 5 tensors)

shared_1.weight f4 [128, 8]
-0.034443624 0.19057705 -0.15316515 -0.36961284 -0.26618037 -0.21968068 0.014554387 0.2333707
-0.23542158 0.19434421 0.4212506 -0.3112721 -0.14499713 -0.319899 0.12578042 0.08765231
-0.26291198 -0.11105524 0.007823595 0.16120735 0.021519678 -0.009461573 0.10531632 -0.19200358
-0.38743633 0.21981859 -0.1523623 -0.22519523 -0.20005336 0.019147348 0.43930587 0.3699615
0.009746467 -0.051121317 -0.09907828 0.05752791 0.27852285 0.060450647 -0.09533491 -0.34790188
0.1027247 0.16944474 0.0432611 0.23712642 0.32946414 -0.2870361 0.2871858 0.24232984
0.3272291 0.09285482 -0.2828949 -0.34953555 -0.31627807 0.17579955 -0.052862976 0.026663333
0.18432026 -0.49333453 -0.23423697 -0.04227264 -0.17556986 -0.108034246 0.016857998 0.21883391
0.19439721 0.35820726 -0.26102304 0.095619835 0.21376418 -0.29109475 -0.032026403 0.06980137
-0.05358972 -0.58639187 -0.18537228 0.34218383 -0.23962694 0.24807636 -0.05978896 -0.23165786
0.09620188 0.31855887 -0.23185493 -0.016534122 0.0999396 -0.09006974 0.26896942 0.55028343
-0.09065709 0.2908148 0.060138136 0.23992687 -0.004298788 0.2833714 -0.10631612 -0.00019333724
0.14703341 0.037119567 -0.053437732 -0.26369655 0.18482454 -0.3115705 0.27697712 0.2966923
0.078397155 0.49876395 -0.08972178 -0.25257003 0.36169738 -0.08135241 -0.18707128 -0.43979022
0.7106852 -0.28455946 0.30788267 -0.15945591 -0.02602673 0.50007224 -0.29283983 0.058087233
-0.61103284 0.31282336 -0.06330044 -0.12610275 -0.39635417 -0.59090567 -0.120912135 -0.22446762
0.04398102 -0.30141556 -0.40884012 0.29600623 -0.26195085 0.11042592 0.21752618 0.08193346
-0.078472264 0.20901684 -0.04907836 0.2563542 -0.045889955 -0.32745698 0.13375904 0.07709105
0.49329892 0.2670786 0.25188 -0.34743518 -0.46575066 -0.01573997 0.35697582 0.17276481
-0.3596338 0.17517342 -0.0055699716 -0.1970898 -0.2560326 -0.36425412 0.26987046 -0.25487494
-0.055434432 -0.15563087 0.024475202 -0.26490918 0.061437048 0.11449548 -0.5395811 -0.16271771
0.05833227 0.34047803 0.35954273 -0.40736708 -0.010444834 -0.42225298 0.2984127 0.1168157
0.03882991 -0.05997489 -0.0034725375 -0.07043626 0.31938428 -0.30227837 0.25780573 0.032088764
-0.32592672 0.22500823 -0.24026716 -0.19329478 0.016455302 -0.22488008 -0.001308178 0.089693405
-0.48133934 0.033654705 -0.26157036 -0.31639597 -0.15150158 0.22536014 0.15042907 0.3975309
0.07429682 -0.17800882 0.060111433 -0.079684585 0.14330694 -0.13553321 0.1324394 0.3765897
0.27891833 0.55270797 0.2661127 -0.36210546 0.18655722 -0.11158937 0.41397038 -0.1516015
-0.39366803 0.048472058 -0.3180519 -0.16681692 -0.06785767 -0.36915115 0.22126658 0.15090832
-0.019252354 0.25503117 0.33132237 -0.011964154 0.0121252285 0.2522322 -0.26638538 0.05409292
0.07873446 0.115307525 -0.41058278 -0.095111355 -0.24384633 0.24137948 -0.24160467 -0.0778612
-0.11586994 -0.46045876 0.06358147 0.28536493 0.06923496 0.0379602 0.0025606186 -0.13222617
-0.32838854 0.3533621 0.21110174 -0.32097843 -0.2127263 0.2362916 0.42428324 -0.06427997
00000000: c214 0dbd a126 433e 53d7 1cbe e53d bdbe
00000010: cb48 88be f9f3 60be 8675 6e3c bbf8 6e3e
00000020: 5b12 71be 2b02 473e 29ae d73e 0f5f 9fbe
00000030: 217a 14be cdc9 a3be 95cc 003e 0e83 b33d
00000040: 669c 86be ee70 e3bd 892e 003c 8a13 253e
00000050: 094a b03c b704 1bbc 15b0 d73d 969c 44be
00000060: 0e5e c6be 2018 613e dd04 1cbe 9499 66be
00000070: cada 4cbe e6da 9c3c b3ec e03e 986b bd3e
00000080: a5af 1f3c 9664 51bd 8ee9 cabd 63a2 6b3d
00000090: 8c9a 8e3e 199b 773d f33e c3bd 3220 b2be
000000a0: 5461 d23d ec82 2d3e 8d32 313d 45d1 723e
000000b0: 86af a83e 65f6 92be 040a 933e 5025 783e
000000c0: 938a a73e ab2a be3d 9ad7 90be 53f6 b2be
000000d0: 33ef a1be cc04 343e d986 58bd 106d da3c
000000e0: 73be 3c3e 5896 fcbe d1db 6fbe 1326 2dbd
000000f0: 96c8 33be 0f41 ddbd c919 8a3c ff15 603e
00000100: 1010 473e f166 b73e d0a4 85be 55d4 c33d
00000110: ffe4 5a3e 5f0a 95be 1e2e 03bd 05f4 8e3d
00000120: e580 5bbd c71d 16bf 3bd2 3dbe b832 af3e
00000130: c460 75be bb07 7e3e 45e5 74bd b837 6dbe
00000140: 7e05 c53d 261a a33e 616b 6dbe 9172 87bc
00000150: 22ad cc3d 7c76 b8bd 5cb6 893e 60df 0c3f
00000160: 6daa b9bd ade5 943e 6853 763d 64af 753e
00000170: d9dc 8cbb 0e16 913e 44bc d9bd 92ba 4ab9
00000180: ed8f 163e b00a 183d 86e1 5abd 3c03 87be
00000190: a542 3d3e 2b86 9fbe f2cf 8d3e 0ee8 973e
000001a0: b08e a03d fd5d ff3e 0dc0 b7bd dc50 81be
000001b0: 6630 b93e 189c a6bd 9d8f 3fbe 2f2c e1be
000001c0: 77ef 353f c7b1 91be cca2 9d3e 6948 23be
000001d0: 0236 d5bc bc04 003f 1aef 95be e1ec 6d3d
000001e0: a66c 1cbf 622a a03e a9a3 81bd 1421 01be
000001f0: efee cabe 9845 17bf c8a0 f7bd d7da 65be
00000200: 7125 343d 2453 9abe 7e53 d1be 218e 973e
00000210: 6c1e 86be fc26 e23d 2fbf 5e3e bbcc a73d
00000220: 11b6 a0bd 8308 563e 6406 49bd dc40 833e
00000230: 1bf7 3bbd 71a8 a7be 21f8 083e eae1 9d3d
00000240: ad91 fc3e 87be 883e 6af6 803e 06e3 b1be
00000250: df76 eebe 1cf1 80bc 89c5 b63e 42e9 303e
00000260: ec21 b8be a960 333e 4f84 b6bb e9d1 49be
00000270: b416 83be 847f babe 762c 8a3e f87e 82be
00000280: 370f 63bd b35d 1fbe 3880 c83c 2da2 87be
00000290: 6aa5 7b3d 9b7c ea3d fd21 0abf 799f 26be
000002a0: d1ed 6e3d 2353 ae3e fc15 b83e 6b92 d0be
000002b0: cf20 2bbc 8b31 d8be 8dc9 983e 123d ef3d
000002c0: 1d0c 1f3d 3ba8 75bd 8393 63bb e340 90bd
000002d0: 5686 a33e 3bc4 9abe 1dff 833e 826f 033d
000002e0: dedf a6be 8f68 663e 9808 76be 11ef 45be
000002f0: 45cd 863c f746 66be 2b77 abba 2db1 b73d
00000300: 1c72 f6be 84d9 093d 8dec 85be a7fe a1be
00000310: 3b23 1bbe cfc4 663e 140a 1a3e 2c89 cb3e
00000320: ee28 983d f247 36be 6837 763d ac31 a3bd
00000330: 0ebf 123e 38c9 0abe 329e 073e 5dd0 c03e
00000340: 62ce 8e3e 457e 0d3f ec3f 883e e365 b9be
00000350: db08 3f3e f888 e4bd edf3 d33e 6c3d 1bbe
00000360: db8e c9be a38a 463d b3d7 a2be 0ed2 2abe
00000370: f6f8 8abd 6101 bdbe b593 623e b687 1a3e
00000380: 1db7 9dbc 7293 823e 16a3 a93e 4d05 44bc
00000390: e5a8 463c 9424 813e aa63 88be 8a90 5d3d
000003a0: 883f a13d 5a26 ec3d e837 d2be bec9 c2bd
000003b0: dab2 79be 2f2c 773e 3767 77be b175 9fbd
000003c0: 384d edbd 40c1 ebbe 0037 823d 5a1b 923e
000003d0: 0fcb 8d3d 287c 1b3d 0dd0 273b 4c66 07be
000003e0: 8b22 a8be e1eb b43e 0e2b 583e 4957 a4be
000003f0: ecd4 59be 6df6 713e a73b d93e 38a5 83bd

shared_1.bias f4 [128]
0.24720103 -0.12100615 -0.084145665 -0.16205758 0.05809812 -0.36708593 -0.052932665 -0.5456482
0.2577056 -0.13879962 0.20739 0.21162912 0.009293529 -0.18856153 0.33638918 -0.20853499
-0.2997453 0.4015559 0.06494936 0.3979326 -0.35798287 0.07178685 -0.23780361 0.4093498
0.3209765 0.38537294 -0.12826322 0.077232435 0.36524922 -0.34417716 -0.54204255 -0.14856482
-0.05318861 -0.49538162 -0.25204718 0.15352257 0.0077092913 -0.07271273 0.31158215 -0.073723756
0.13923521 0.30620262 0.015431172 -0.12451901 0.33576617 -0.32064116 0.51407367 -0.36995694
0.3725553 -0.16537736 0.23323205 0.10504883 -0.3777908 -0.33700922 -0.3238118 0.20185123
0.124322616 -0.40881917 -0.60941917 -0.26564458 -0.12633598 0.12586685 0.28154507 -0.5050109
0.24592659 0.19919835 0.008936919 -0.2184933 -0.08153687 0.29880783 0.24994457 0.30867654
-0.098988384 -0.43090463 0.16495554 0.30450773 0.18166907 0.3242164 -0.43849078 0.24747328
0.41271693 -0.46221235 0.43775293 0.35865244 -0.3753688 0.07756117 -0.3622341 -0.3126317
-0.38670263 0.41261598 0.31529588 -0.16039552 -0.3536205 0.12112614 -0.13048856 -0.2821819
0.44578907 0.46983176 -0.19641107 -0.078351565 0.45851412 -0.021455023 -0.15427668 0.2958143
0.3195302 0.16693828 0.25476685 -0.5058239 -0.15411474 0.33599108 -0.17173699 -0.28206027
-0.31352264 0.007914861 -0.50697076 -0.39840478 0.4624369 0.022537282 -0.24650957 0.12296149
0.015614322 0.20099415 0.36354735 -0.21357305 0.3985004 -0.22253829 0.35908887 -0.4066753
00000000: 4422 7d3e 13d2 f7bd 9054 acbd 6cf2 25be
00000010: 4bf8 6d3d b0f2 bbbe eccf 58bd 9aaf 0bbf
00000020: fdf1 833e 7d21 0ebe 0b5e 543e 4eb5 583e
00000030: e343 183c 4616 41be 343b ac3e 328a 55be
00000040: 3778 99be bc98 cd3e 2c04 853d d2bd cb3e
00000050: 8849 b7be fc04 933d ca82 73be 4c96 d13e
00000060: 0857 a43e 9a4f c53e 6f57 03be 0a2c 9e3d
00000070: f201 bb3e fd37 b0be 4dc3 0abf 6021 18be
00000080: 4ddc 59bd a9a2 fdbe 540c 81be 0535 1d3e
00000090: 399e fc3b 69ea 94bd b287 9f3e 7bfc 96bd
000000a0: ad93 0e3e 97c6 9c3e 07d3 7c3c d303 ffbd
000000b0: 8be9 ab3e 142b a4be 559a 033f ff6a bdbe
000000c0: 91bf be3e af58 29be 62d4 6e3e d723 d73d
000000d0: cc6d c1be 798c acbe a9ca a5be 17b2 4e3e
000000e0: db9c fe3d bf50 d1be e502 1cbf 9102 88be
000000f0: 385e 01be 3de3 003e ad26 903e 6548 01bf
00000100: 2ed4 7b3e a7fa 4b3e 286c 123c b5bc 5fbe
00000110: cdfc a6bd 57fd 983e 78f1 7f3e da0a 9e3e
00000120: 6cba cabd 889f dcbe 1bea 283e 70e8 9b3e
00000130: 7507 3a3e b1ff a53e dd81 e0be a369 7d3e
00000140: a24f d33e 19a7 ecbe 2721 e03e 4ba1 b73e
00000150: 5730 c0be 64d8 9e3d bf76 b9be 4311 a0be
00000160: e3fd c5be 6742 d33e 766e a13e b93e 24be
00000170: bf0d b5be fb10 f83d cb9e 05be 257a 90be
00000180: 773e e43e ca8d f03e fc1f 49be c976 a0bd
00000190: 5dc2 ea3e 72c2 afbc b5fa 1dbe f974 973e
000001a0: 7699 a33e def1 2a3e cd70 823e ad7d 01bf
000001b0: 41d0 1dbe 0607 ac3e d2db 2fbe 346a 90be
000001c0: 0a86 a0be 55ad 013c d6c8 01bf b6fb cbbe
000001d0: 88c4 ec3e 1ba0 b83c 016d 7cbe 3cd3 fb3d
000001e0: 37d3 7f3c 69d1 4d3e e122 ba3e e5b2 5abe
000001f0: 3f08 cc3e 14e1 63be 7fda b73e bf37 d0be

shared_2.weight f4 [128, 128]
0.06199968 0.0022925155 0.013940588 0.068567194 0.0023617079 -0.19683476 0.15212975 -0.04120358
0.08012837 -0.124525145 -0.06787647 -0.01814739 -0.0061228895 -0.24326728 0.31703508 0.20922916
-0.20565361 0.09284238 0.06374013 0.05127888 -0.0886944 0.022609048 -0.16360353 0.14560325
0.12939289 0.060493436 -0.1345105 0.19347785 0.07563897 -0.10159832 -0.15792985 0.103575245
-0.024687128 -0.19177553 -0.21059875 0.0929089 -0.05798613 0.056959055 0.029091554 0.26899663
0.01573211 0.15501003 0.1085968 -0.07965826 0.05026477 -0.16733432 -0.050652523 -0.10808656
0.18630598 -0.12850134 0.095598154 0.20132954 -0.3126169 -0.070511475 -0.20991236 0.16901337
0.16302542 -0.1509369 -0.16932634 -0.18586086 0.09495911 -0.026245972 0.19192462 -0.092542514
0.32808825 -0.007981963 -0.01961455 0.08911612 0.14057219 0.17302157 0.06975299 0.16916864
-0.1503525 -0.18376683 0.31760395 0.18571155 0.08136559 0.07465457 -0.15514277 0.01800052
0.21675727 -0.19187227 0.012871404 0.08174137 -0.07069453 0.07983557 0.29224786 -0.21695644
-0.20698908 0.10980078 0.12864129 -0.13571544 -0.0676205 0.17873561 -0.083728775 -0.13693513
0.1111111 0.14890435 -0.0971456 0.06031321 0.14822698 0.11532012 0.03987214 0.14972691
0.20127042 0.08751601 0.039467324 -0.13095964 0.14541768 0.0043001445 0.091929205 -0.09103484
-0.19459182 0.06366378 -0.23985273 -0.14382626 -0.1721749 0.2564434 -0.12585898 -0.070340894
-0.046135705 0.13759366 -0.033939127 -0.18235205 0.15210131 0.21673782 0.17861938 -0.086208135
-0.14519629 -0.12782678 0.21680775 -0.021014068 0.057698302 0.076310344 -0.12249174 0.11442941
-0.09859903 0.12527798 -0.028964534 0.0054337485 -0.19112493 0.0009016983 0.06709522 0.12341054
0.09791634 -0.063857816 -0.161502 -0.014653882 0.091262996 -0.2260724 0.05478858 -0.02410337
-0.07444385 -0.09120287 -0.21313073 -0.07769493 -0.14137913 0.054041684 -0.018197933 0.002791117
0.021164212 0.12242474 -0.017184744 -0.11426801 -0.08370559 0.05070557 -0.037757907 0.31315956
-0.02899093 -0.10686423 0.008134129 -0.008331712 -0.18089424 0.11289007 -0.0013861451 0.13181913
-0.03331621 0.106347546 -0.17893071 -0.07019661 -0.03376316 0.08760489 -0.14124754 -0.059602983
0.08521425 0.0076345983 0.024236878 -0.040678155 -0.22888465 -0.08618793 -0.07926435 0.067464374
0.11644884 -0.11257133 -0.015864851 0.19898304 -0.17650993 -0.16015624 -0.004867254 -0.0015706356
0.16986787 0.112251244 0.32283387 -0.16425791 0.036022987 -0.15796968 0.01601199 -0.11177665
-0.17837326 -0.05620102 -0.021472497 0.013549302 -0.01856917 -0.12600392 0.29459023 0.08416731
0.13168682 -0.11548367 0.0844012 0.24627963 -0.0052579246 -0.058949444 0.021474348 -0.03157322
-0.10270213 -0.13008179 0.061424397 -0.13336374 -0.06581535 -0.19093531 0.32894465 -0.016935417
-0.090415455 0.21306996 -0.012408509 -0.010076749 0.34414074 -0.054789796 -0.10906163 0.13026762
0.13516428 -0.031895354 0.03181282 0.10436784 -0.0018262134 0.034658752 -0.013097182 0.17376448
-0.0029589667 -0.14374435 -0.12909436 0.028506609 0.008609108 0.15217048 -0.044521265 0.031391725
00000000: 60f3 7d3d 073e 163b 1067 643c f56c 8c3d
00000010: e2c6 1a3b 0d8f 49be e7c7 1b3e 16c5 28bd
00000020: 581a a43d 0a07 ffbd d202 8bbd d6a9 94bc
00000030: 85a2 c8bb 0f1b 79be 6c52 a23e 2b40 563e
00000040: dc96 52be 2524 be3d 2f8a 823d ce09 523d
00000050: 69a5 b5bd 9c36 b93c af87 27be 0519 153e
00000060: 927f 043e f7c7 773d 1fbd 09be 0f1f 463e
00000070: 9be8 9a3d c812 d0bd 5db8 21be 421f d43d
00000080: a93c cabc ce60 44be 33a7 57be 0547 be3d
00000090: dd82 6dbd e64d 693d 6951 ee3c edb9 893e
000000a0: a0e0 803c f3ba 1e3e 0068 de3d df23 a3bd
000000b0: 6ee2 4d3d b059 2bbe 0579 4fbd 7d5c ddbd
000000c0: ffc6 3e3e db95 03be f7c8 c33d 5529 4e3e
000000d0: 530f a0be 5268 90bd 44f3 56be d711 2d3e
000000e0: 23f0 263e 348f 1abe e263 2dbe 4f52 3ebe
000000f0: ec79 c23d cb01 d7bc e387 443e ee86 bdbd
00000100: 2ffb a73e c8c6 02bc b1ae a0bc 8382 b63d
00000110: 28f2 0f3e 912c 313e a8da 8e3d 8b3a 2d3e
00000120: 01f6 19be 5f2d 3cbe fc9c a23e 2b2b 3e3e
00000130: 01a3 a63d 7fe4 983d bfdd 1ebe d475 933c
00000140: 9ef5 5d3e 2a7a 44be 95e2 523c 0568 a73d
00000150: 4bc8 90bd d580 a33d 83a1 953e d429 5ebe
00000160: f2f4 53be 3bdf e03d 8bba 033e fdf8 0abe
00000170: 9e7c 8abd 7806 373e fe79 abbd b938 0cbe
00000180: 378e e33d 627a 183e 46f4 c6bd fc0a 773d
00000190: d0c8 173e f42c ec3d f850 233d 0352 193e
000001a0: d519 4e3e 983b b33d 7da8 213d 491a 06be
000001b0: 5fe8 143e 3ae8 8c3b 6145 bc3d 7970 babd
000001c0: 1443 47be 2862 823d f49b 75be 3147 13be
000001d0: 9e4e 30be 8d4c 833e 2de1 00be e30e 90bd
000001e0: cbf8 3cbd 5ae5 0c3e c103 0bbd 7fba 3abe
000001f0: 72c0 1b3e 85f0 5d3e 00e8 363e e48d b0bd
00000200: 56ae 14be 06e5 02be da02 5e3e b225 acbc
00000210: 0e55 6c3d 9948 9c3d f3dc fabd f759 ea3d
00000220: 4aee c9bd df48 003e 0847 edbc 960d b23b
00000230: 41b6 43be f35f 6c3a 3869 893d aabe fc3d
00000240: 5d88 c83d e3c7 82bd c860 25be d616 70bc
00000250: 18e8 ba3d 867f 67be fd69 603d 6e74 c5bc
00000260: 0476 98bd 92c8 babd f13e 5abe 851e 9fbd
00000270: b1c5 10be d05a 5d3d d513 95bc 2ceb 363b
00000280: 9260 ad3c d2b9 fa3d 05c7 8cbc 5905 eabd
00000290: d66d abbd a5b0 4f3d 09a8 1abd 7356 a03e
000002a0: 637e edbc a2db dabd 0345 053c bc81 08bc
000002b0: 573c 39be e932 e73d 50af b5ba 98fb 063e
000002c0: 9476 08bd becc d93d 9d39 37be 3ec3 8fbd
000002d0: 3d4b 0abd 316a b33d 32a3 10be 4222 74bd
000002e0: cf84 ae3d a72b fa3b 6b8c c63c 239e 26bd
000002f0: bd60 6abe 4c83 b0bd 5955 a2bd c32a 8a3d
00000300: bb7c ee3d cc8b e6bd 01f7 81bc 36c2 4b3e
00000310: 05bf 34be ffff 23be 7c7d 9fbb c9dd cdba
00000320: d8f1 2d3e fbe3 e53d 7b4a a53e 3a33 28be
00000330: d78c 133d cec2 21be 942b 833c 28eb e4bd
00000340: 7ba7 36be 0a33 66bd 17e7 afbc e4fd 5d3c
00000350: 5f1e 98bc 2c07 01be 88d4 963e e95f ac3d
00000360: e9d8 063e b482 ecbd 89da ac3d ba30 7c3e
00000370: ab4a acbb f974 71bd f9ea af3c ec52 01bd
00000380: 7f55 d2bd 2934 05be 2698 7b3d 8190 08be
00000390: 33ca 86bd 8c84 43be 6f6b a83e 25bc 8abc
000003a0: bd2b b9bd 032f 5a3e 0f4d 4bbc f318 25bc
000003b0: 3733 b03e 446b 60bd b45b dfbd e064 053e
000003c0: 8168 0a3e b4a4 02bd 294e 023d cebe d53d
000003d0: 8e5d efba 56f6 0d3d 9095 56bc 51ef 313e
000003e0: 39eb 41bb b831 13be 5031 04be b186 e93c
000003f0: 370d 0d3c 94d2 1b3e ee5b 36bd 9c94 003d

shared_2.bias f4 [128]
0.15228236 -0.1047044 0.002332114 0.003671162 0.0074950927 0.06177232 0.14159198 0.12433773
0.15316476 0.13092156 -0.08541385 0.15896767 0.11023432 0.15944894 0.14269233 0.16260295
0.16120687 0.20647405 0.10641708 -0.05781476 0.070556335 0.00672392 0.052641593 -0.10045952
0.06879996 0.04165346 0.06336921 0.20876384 -0.013255748 0.09560616 0.120100066 0.19507274
0.16994464 0.09529342 0.099023946 -0.103275076 0.16251175 0.10319105 0.030068832 -0.0016731861
0.040571045 0.14069434 0.17015055 0.19483708 0.114826314 0.11032783 0.113635674 -0.10351102
-0.075471796 -0.07738858 -0.12757985 -0.081929654 0.019604133 0.20454048 -0.012651531 0.19612738
0.21930687 0.05136886 0.03148463 0.010469536 0.04967023 0.14454852 0.07408458 -0.063172475
0.123459995 0.09118217 0.033697903 0.14737093 0.13811448 0.20293288 0.015075867 0.1582684
-0.005093405 0.14730403 -0.03214027 0.038864505 0.074019514 -0.013181325 0.027682332 0.02938329
0.079815075 0.093241215 0.15480223 0.11594114 0.016723055 0.10225597 0.12946942 0.047297735
0.080045864 -0.052705996 -0.005253675 0.059939563 0.17875507 0.033847623 -0.08562086 0.15824258
0.17572883 0.0023012469 -0.012370881 -0.040528793 -0.02482527 -0.06666077 0.08390595 0.046627548
-0.04107578 0.17193776 0.048557315 0.13707478 -0.104331054 -0.04339894 0.11702194 0.13943583
-0.08608008 -0.06043863 0.1494839 0.040327717 0.20763698 0.059784144 -0.053832527 -0.09306053
-0.086590745 0.21392961 -0.09804556 -0.07744617 0.18403335 0.17381346 0.09203403 0.11080883
00000000: e8ef 1b3e 436f d6bd 61d6 183b e197 703b
00000010: 6599 f53b f904 7d3d 7dfd 103e c8a4 fe3d
00000020: 39d7 1c3e 4d10 063e 75ed aebd 6cc8 223e
00000030: 88c2 e13d 9546 233e f01d 123e 6381 263e
00000040: 6a13 253e ef6d 533e 33f1 d93d 2bcf 6cbd
00000050: d77f 903d 5454 dc3b b69e 573d b9bd cdbd
00000060: fee6 8c3d d29c 2a3d b7c7 813d 30c6 553e
00000070: a32e 59bc 2acd c33d 06f7 f53d 26c1 473e
00000080: f805 2e3e 3229 c33d 11cd ca3d e281 d3bd
00000090: 7b69 263e d455 d33d e952 f63c cf4e dbba
000000a0: d32d 263d 2d12 103e f23b 2e3e 5f83 473e
000000b0: 0f2a eb3d 8ff3 e13d d2b9 e83d 96fd d3bd
000000c0: f590 9abd e77d 9ebd 4ba4 02be bcca a7bd
000000d0: d998 a03c 0f73 513e 5e48 4fbc 9ed5 483e
000000e0: fb91 603e 2768 523d 07f6 003d 6b88 2b3c
000000f0: 0373 4b3d 8704 143e a8b9 973d 9260 81bd
00000100: 98d8 fc3d b8bd ba3d d006 0a3d 68e8 163e
00000110: e26d 0d3e a3cd 4f3e c500 773c 1d11 223e
00000120: 94e6 a6bb ded6 163e 84a5 03bd 6330 1f3d
00000130: 8b97 973d 7cf6 57bc 0fc6 e23c 3ab5 f03c
00000140: 1676 a33d 40f5 be3d 7a84 1e3e 8c72 ed3d
00000150: cafe 883c 946b d13d a293 043e 45bb 413d
00000160: 16ef a33d 3ee2 57bd 0527 acbb 3083 753d
00000170: 920b 373e cea3 0a3d fd59 afbd 580a 223e
00000180: 42f2 333e 84d0 163b 3caf 4abc 8501 26bd
00000190: 5d5e cbbc 7185 88bd e2d6 ab3d 87fc 3e3d
000001a0: 143f 28bd 7410 303e 09e4 463d 555d 0c3e
000001b0: 85ab d5bd 16c3 31bd 33a9 ef3d 44c8 0e3e
000001c0: c14a b0bd 7f8e 77bd 4f12 193e ad2e 253d
000001d0: ca9e 543e 38e0 743d 7f7f 5cbd 8596 bebd
000001e0: 7d56 b1bd 5d10 5b3e 1ccc c8bd 199c 9ebd
000001f0: 3d73 3c3e 28fc 313e 567c bc3d bdef e23d

out_value.weight f4 [1, 128]
-0.18359494 0.28050983 0.25091103 0.24324872 0.24423893 -0.2003454 -0.1644785 -0.1864297
0.39834675 -0.2075225 0.31902996 -0.18729387 -0.24739142 -0.18120727 -0.16802107 -0.22565025
-0.16335629 -0.18479308 -0.23421134 0.32141393 -0.234797 0.28411034 0.30233622 0.24312751
-0.18580116 0.25626484 0.41136703 -0.16844721 0.21942417 0.37474084 -0.23753503 -0.20303439
-0.18832341 -0.15098909 -0.25223732 0.23955405 -0.19467293 -0.18233901 0.23451088 0.2619224
0.25345796 -0.20440723 -0.25226113 -0.16327435 -0.24030977 -0.185393 -0.25095522 0.26883838
0.3143078 0.27662733 0.25182697 0.27663782 0.23611033 -0.17206515 0.2592556 -0.15992652
-0.16518089 -0.2339084 0.43299928 0.27014607 -0.20751587 -0.1767056 -0.16146645 0.2983685
-0.19333114 -0.2052227 -0.1890274 -0.21192285 -0.20148687 -0.17208637 0.25713965 -0.2400592
0.22386989 -0.18220063 0.27934596 0.28957838 -0.23014444 0.28969347 0.28534174 0.259662
-0.20756121 -0.17792806 -0.18879393 -0.2452235 0.25450224 -0.17922267 -0.22771224 -0.20720707
-0.21432154 0.24686056 0.2185848 -0.23200293 -0.18932287 -0.2457307 0.30244467 -0.2101004
-0.21095476 0.4137034 0.26764822 0.2549555 0.2773751 0.27513903 -0.17615227 0.27346587
0.26660222 -0.16798061 0.43893608 -0.23325527 0.24017721 0.22807938 -0.16777955 -0.25229886
0.26716286 0.23526148 -0.21632664 0.22698066 -0.16070276 -0.22837721 0.2338522 0.27638
0.21739945 -0.19400564 0.23755792 0.22825573 -0.18976586 -0.17235368 -0.16996187 -0.22501959
00000000: 5000 3cbe fc9e 8f3e 6977 803e 3116 793e
00000010: c519 7a3e 5827 4dbe 0d6d 28be 6de7 3ebe
00000020: 1bf4 cb3e c780 54be e557 a33e f7c9 3fbe
00000030: 2d54 7dbe 668e 39be b70d 2cbe dc10 67be
00000040: df46 27be 663a 3dbe 19d5 6fbe 5e90 a43e
00000050: a06e 70be e976 913e d0cb 9a3e 6bf6 783e
00000060: a942 3ebe 2535 833e b39e d23e 6d7d 2cbe
00000070: bbb0 603e 08de bf3e 623c 73be 3fe8 4fbe
00000080: dad7 40be e29c 1abe 4025 81be a84d 753e
00000090: 5758 47be 14b7 3abe 9f23 703e b11a 863e
000000a0: 3ec5 813e 2150 51be 5f28 81be 6431 27be
000000b0: c413 76be aad7 3dbe 347d 80be 2fa5 893e
000000c0: f4ec a03e 19a2 8d3e 77ef 803e 79a3 8d3e
000000d0: e8c6 713e d931 30be 26bd 843e c7c3 23be
000000e0: 2e25 29be af85 6fbe 15b2 dd3e 9650 8a3e
000000f0: 0a7f 54be 50f2 34be 7657 25be c2c3 983e
00000100: 99f8 45be e625 52be 6690 41be 4e02 59be
00000110: 9352 4ebe 6937 30be cfa7 833e 14d2 75be
00000120: 263e 653e cd92 3abe 6f06 8f3e 9e43 943e
00000130: fcaa 6bbe b452 943e 5018 923e 6bf2 843e
00000140: ed8a 54be c632 36be 3253 41be df1b 7bbe
00000150: 1e4e 823e 2686 37be 662d 69be 172e 54be
00000160: 1b77 5bbe 04c9 7c3e b2d4 5f3e 2d92 6dbe
00000170: dbdd 41be d4a0 7bbe 07da 9a3e 8f24 57be
00000180: 8604 58be efd0 d33e 3009 893e 8789 823e
00000190: 1c04 8e3e 06df 8c3e 4361 34be b803 8c3e
000001a0: 1680 883e 1c03 2cbe 3bbc e03e 78da 6ebe
000001b0: 04f1 753e a48d 693e 67ce 2bbe 512d 81be
000001c0: 92c9 883e 63e8 703e bb84 5dbe 9e6d 683e
000001d0: 448f 24be b7db 69be f376 6f3e ae81 8d3e
000001e0: f69d 5e3e 6aa9 46be 6242 733e dfbb 693e
000001f0: fb51 42be 7c7d 30be 7c0a 2ebe 896b 66be
