models/LunarLander_DQL_2387.pt (torch, 108060 bytes, 8 tensors)

fc1.weight f4 [128, 8]
000000 a5 a9 43 be 67 d9 5f 3e 84 a0 21 3e a1 46 9b 3e
       -0.19107683 0.21860276 0.15783888 0.30327323
000010 ad 16 e1 be 02 bf 66 3e 6d b1 83 bf df 64 89 bf
       -0.43962613 0.22533801 -1.0288521 -1.0733908
000020 71 b9 8c bd 3e 97 ee bc 58 d0 4f 3d aa 16 a6 3d
       -0.06871308 -0.029124852 0.0507358 0.081097916
000030 d1 df 68 3e bb dd 15 be 4d ce b3 bf 38 c9 ed be
       0.22741629 -0.14635365 -1.4047333 -0.4644258
000040 a4 53 a0 bd a4 b3 5a be a8 41 79 be be 5b 6b 3e
       -0.07828453 -0.2135759 -0.24341452 0.22984216
000050 e0 df 6b 3c 28 36 7b 3d 30 50 8b bd 20 77 06 3e
       0.014396638 0.061330944 -0.06802404 0.1313138
000060 2a df 6a 3e ad 23 69 3e f7 41 5f be bb e6 d3 3e
       0.22936693 0.22767515 -0.21802507 0.4138697
000070 41 d8 81 be a9 ae 5f be b0 18 67 bf 2a 11 82 bf
       -0.253603 -0.21843971 -0.90272045 -1.0161488
000080 0f be 2f 3e e1 3e 2a 3e 23 d3 b7 be a0 49 dd 3d
       0.17162345 0.16625549 -0.35903272 0.108050585
000090 8e 05 48 be 6c 10 f2 3d 30 41 17 bf b8 72 32 bf
       -0.19533369 0.118195385 -0.59083843 -0.69706297
0000a0 08 54 7f bd 60 f4 89 be 83 76 91 3e 6a 1f 04 be
       -0.062335998 -0.26944256 0.2841073 -0.12902609
0000b0 3c e1 49 be 30 32 9c 3e 6c f6 61 3f e8 4a 94 3d
       -0.19714826 0.3050704 0.88266635 0.0724085
0000c0 fe e3 9e be b3 af 8d 3e 99 fd e7 3c 55 e1 ce be
       -0.3103332 0.2767311 0.028319167 -0.4040629
0000d0 a4 b2 39 3e 6d 97 7f bd 4f 01 98 3e 61 92 98 3e
       0.18134552 -0.06240027 0.29688498 0.29799178
0000e0 3a 96 80 be 73 2a a4 bb 0c de 84 be 71 a5 55 3e
       -0.25114614 -0.005009943 -0.25950658 0.20863892
0000f0 50 b0 ab 3e 88 c4 85 3e 83 44 aa 3c 5a c7 40 be
       0.33532953 0.26126504 0.020784622 -0.18826047
000100 42 bc 16 be 28 a5 12 bd 00 40 8c 3c 23 8a 89 be
       -0.14720252 -0.035802037 0.017120361 -0.26863202
000110 0e b3 bc 3e 3b c4 83 3e 7f 93 35 3d 03 1b d9 3e
       0.36855358 0.2573565 0.044330116 0.4240342
000120 0e 85 e6 3d 8c 8a 82 bc fc 61 57 be 8d 9c 9d 3e
       0.11255847 -0.015935205 -0.21033472 0.307835
000130 76 1d 7d be e8 fd 43 3e 5c 9e 17 3f 7f 84 88 be
       -0.2471827 0.19139826 0.5922601 -0.26663586
000140 b3 0c 8f 3d c8 a6 ba 3e eb 53 9b bd 12 38 d6 be
       0.06984844 0.3645537 -0.075843655 -0.41839653
000150 f8 ce 79 3d 20 45 9f bd 7a ab 0e bf 11 5b 7d bf
       0.060988396 -0.077768564 -0.557304 -0.9896708
000160 79 47 1a bd 3b 06 57 be 8b 74 f1 3c 84 8f 99 3d
       -0.037665818 -0.2099847 0.029474517 0.074980766
000170 50 cc 2d bd 04 07 8b 3e d3 2a 75 3f 3a 3d 44 3f
       -0.042431176 0.2715379 0.9576847 0.76655924
000180 d5 a3 d3 3d 96 cb 2d bd 33 c8 10 3e ee f4 c6 be
       0.10333983 -0.042430483 0.1413887 -0.38858742
000190 4b a1 ab 3e 34 6c d2 bd 46 29 74 3f fc fb 0b 3f
       0.33521494 -0.10274544 0.9537548 0.5468137
0001a0 42 13 b1 be 27 e1 66 3e 16 c5 44 bd d9 55 84 3e
       -0.34585005 0.22546826 -0.04803952 0.25846747
0001b0 2a 9f 18 3e 83 1d 6f bd 04 04 59 be 94 dc b8 be
       0.14904466 -0.058377754 -0.21192938 -0.36105788
0001c0 90 0c 87 be 59 62 52 be d4 5d fb 3d 1d b3 c5 3d
       -0.26376772 -0.20545329 0.12273756 0.09653304
0001d0 50 35 0d 3d 67 74 bf 3e fa b2 97 3f a6 b4 a3 3e
       0.03447467 0.37393495 1.1851494 0.3197376
0001e0 ff aa a7 bd 34 51 65 3e 0d 40 67 3e a1 d2 af 3e
       -0.08186912 0.22394258 0.22583027 0.34340385
0001f0 11 eb 72 bd 2b a7 00 bf 34 8f b2 be 17 ab 20 bd
       -0.059306208 -0.5025508 -0.3487488 -0.039225664
000200 56 ff d0 bd 0d 36 43 be 60 32 34 3e 3c 22 1c 3e
       -0.102049515 -0.19063587 0.17597342 0.15247434
000210 df 63 c9 be 66 40 80 3e ad 12 97 3c 65 33 4b be
       -0.39334008 0.25049132 0.018441522 -0.19843824
000220 8e 50 36 3e 49 3c 5b be 4c f5 46 be 02 6a 9b bd
       0.17804167 -0.21409716 -0.19429511 -0.07588579
000230 04 50 ca be 00 a7 c8 3e dd 5a eb 3e b1 93 b0 3e
       -0.39514172 0.3918991 0.4596776 0.3448768
000240 53 f5 0e 3e a1 ff 00 be d2 00 97 be c1 5c a5 bd
       0.13960771 -0.12597515 -0.29492813 -0.08074332
000250 60 f0 69 3e 49 69 94 3d 15 84 de 3e 58 6d d4 3e
       0.22845602 0.07246644 0.43460146 0.41489673
000260 a2 87 07 3e 48 a2 37 3e 09 18 99 3e 63 63 b2 be
       0.13235334 0.17932999 0.2990115 -0.3484145
000270 f2 1e a1 be 22 ba 87 3d be a5 8c 3e 2a 30 81 bd
       -0.31468922 0.06627299 0.274702 -0.06308015
000280 f8 d4 e5 3d b9 e3 05 bb 5b 56 3c 3e a0 a0 b9 3e
       0.11222261 -0.0020429923 0.18392317 0.3625536
000290 eb 58 fb be 58 f0 ea bd 7f f3 97 3c d7 52 c3 3e
       -0.49091277 -0.11471623 0.018548725 0.3814914
0002a0 17 35 15 be 95 1f a2 be 0f 19 8e be 1d ae 84 3e
       -0.14571033 -0.3166472 -0.27753493 0.25914088
0002b0 d4 3b b3 3d ff ab a1 be 14 21 ad bd 44 9a 8a 3d
       0.08751646 -0.31576535 -0.08453575 0.06767705
0002c0 53 db d5 3c 8b a7 c5 3d 24 0d 33 be 07 42 df bd
       0.026105558 0.09651097 -0.17485482 -0.109012656
0002d0 90 9a 93 3e 01 bd 2a be 19 e5 28 bf e3 f7 0e 3e
       0.2882886 -0.16673662 -0.65974575 0.13961749
0002e0 5d 47 77 3c 0e fb 1d 3e b0 5b 94 be ef 89 ab be
       0.015092698 0.15427801 -0.28976202 -0.33503672
0002f0 d5 83 83 3e 7a 5c 7c 3e f0 2b 19 be 66 02 ff be
       0.25686517 0.24644652 -0.14958167 -0.49806517
000300 a8 fc 44 3e 9e 42 92 3d db 5a 6e bd 60 94 c4 3d
       0.19237006 0.071416125 -0.058192115 0.09598613
000310 5b fd 5c be 67 11 bf bd b5 9f 95 bf 79 e0 90 be
       -0.21581022 -0.09329491 -1.1689364 -0.2829626
000320 70 1e 63 be b9 92 6b 3e 5e e4 86 be f3 cf 79 be
       -0.2217958 0.23005189 -0.26346105 -0.24395733
000330 0a 68 9a 3e d7 dd b0 3e 80 33 33 3f 68 ff 31 3f
       0.301575 0.3454425 0.7000046 0.69530344
000340 7c e8 4e 3e fd 49 1b be f7 ba 6d bd 88 17 89 3d
       0.20205873 -0.15164943 -0.05803963 0.06693941
000350 05 e8 be 3e f6 ab aa be d2 3a 7b bf 8b fe 4b 3f
       0.37286392 -0.3333432 -0.9813663 0.79685277
000360 41 61 3f bc ba e7 7b 3e af 9f 4b 3e e1 96 82 be
       -0.011680902 0.24600115 0.19885133 -0.25505736
000370 fe 4e 11 3e 8d 2c 00 bf c5 b4 c0 3c 40 e0 91 3d
       0.1419029 -0.5006798 0.023523698 0.071228504
000380 2f fe 17 3d 52 02 8e 3e dc b3 fe bd 66 64 dc 3e
       0.037107643 0.27736145 -0.12436649 0.43045348
000390 d9 d3 58 be ee ba 7b be de ec a6 be 21 79 4e be
       -0.21174563 -0.24583027 -0.3260259 -0.20163395
0003a0 91 93 06 be 7d 31 87 3d fd 24 46 bd a4 4a ba be
       -0.1314223 0.06601236 -0.04837512 -0.3638507
0003b0 43 98 9c 3e 9c e0 b5 be 9c b1 b8 be 65 a2 87 3e
       0.30584916 -0.35522926 -0.36073005 0.26491085
0003c0 2d 34 8f be ef 10 97 be b0 f0 ac bd 51 5a a4 be
       -0.27969494 -0.29505107 -0.08444345 -0.32100156
0003d0 20 ce 23 3c 3c 9e 88 3d 09 13 9b 3e 20 39 6c 3c
       0.0099978745 0.06670806 0.3028796 0.014417917
0003e0 04 a8 3e bb d9 71 c3 3e bf bf fb bd 00 0b 84 be
       -0.0029091844 0.38172796 -0.12292432 -0.25789642
0003f0 2e 4e e0 be cc 91 86 3e 82 b5 38 3e 88 6a 83 be
       -0.43809646 0.2628311 0.1803799 -0.25667214

fc1.bias f4 [128]
000000 6d b6 c0 3c 9d 8a 82 be 06 d6 5d 3e dd e8 0f be
       0.023524487 -0.2549638 0.21663675 -0.14053674
000010 3c 3b c7 3c 42 13 7a bd d4 19 54 3e 87 f3 0e bf
       0.024320237 -0.061053522 0.20712978 -0.55840343
000020 f6 e1 b0 3e fd 34 83 bf b9 42 e2 3c 56 8a 06 3f
       0.34547395 -1.0250546 0.027619706 0.52554834
000030 2d 00 bd 3e d7 70 5b be ca a5 86 be 8f 2b 0a 3f
       0.36914197 -0.21429764 -0.26298362 0.53972715
000040 68 ce e3 3e 2f a3 f4 ba 2e 96 9a bd 67 9b bd bd
       0.44493413 -0.0018664355 -0.07548176 -0.09258156
000050 e9 55 a2 bd 50 0f d8 bc c9 d8 76 3e 8f 33 3e be
       -0.07926542 -0.02637449 0.24106134 -0.18574356
000060 05 3f 0e bf 00 c8 9d 3e 1a 62 63 3d ae 46 a4 bd
       -0.5556491 0.3081665 0.05551348 -0.080212936
000070 bd 7c 61 3e ff e6 b7 be 60 44 f1 bc ab 3e 1a 3f
       0.2202024 -0.35918424 -0.029451549 0.60251874
000080 f1 fe 26 bf df cd a1 3e 1a 6f ad 3e 55 45 95 be
       -0.6523276 0.3160238 0.33873826 -0.2915446
000090 53 80 9e 3d 7f c6 a5 3e ed c8 da 3e 75 2f 89 3d
       0.0773932 0.32378003 0.4273142 0.06698505
0000a0 2c 07 16 3e 9a 34 41 3e d0 43 86 3d 67 fb 99 be
       0.14651173 0.18867722 0.06555903 -0.30074617
0000b0 c6 5e 50 3e 24 f1 9a bc 18 56 d1 bd 5e 09 f0 bd
       0.20348653 -0.018913813 -0.10221499 -0.11720537
0000c0 66 00 a2 3e 89 df 6f be fb 29 20 bf e4 d1 2a be
       0.3164093 -0.23425116 -0.6256406 -0.1668163
0000d0 e8 ee c2 ba bd 65 bc 3e d9 48 9e be 74 8f 0d be
       -0.0014872225 0.3679637 -0.30914953 -0.13824254
0000e0 6d e9 03 3f 76 fb c9 be 5a 50 58 be db 44 1b 3c
       0.51528054 -0.39449662 -0.21124402 0.009476866
0000f0 ee 0f 63 be c1 14 7f be 4b e9 00 be f1 3b 30 3f
       -0.22174045 -0.2491026 -0.12588994 0.68841463
000100 c4 e9 11 3f 4c d8 cb bd c0 16 5c 3e 6a 1a 18 3e
       0.56997323 -0.09953365 0.21493053 0.14853826
000110 7a 6d 35 bf ec ed a9 3d f7 ad 73 be fb 8e 93 3e
       -0.7087017 0.08297333 -0.23796831 0.28820023
000120 6c 56 77 3f a7 7f eb bd aa 5d 31 3d a2 6b 75 bd
       0.96616244 -0.11498957 0.043302216 -0.0599171
000130 ac 06 38 bf f8 ff 1d 3f 92 68 5c 3e 14 41 e5 3e
       -0.7188518 0.617187 0.21524265 0.44776213
000140 14 37 03 3f dc da 64 bf 9b 3f bb 3d 15 f3 45 bf
       0.5125592 -0.8939645 0.09142991 -0.7732404
000150 c0 2d ca 3e 0f 99 4c 3f 99 1c 08 3f a8 fa 71 bc
       0.3948803 0.7992105 0.53168637 -0.014769234
000160 65 75 31 bf c0 8c c0 3d a9 22 b4 3e 4a 9e 34 3f
       -0.69319755 0.09401846 0.35182694 0.7055403
000170 94 e6 44 bd 8f 44 8c be 42 e9 a6 3e a3 2f 10 bf
       -0.04807146 -0.27396056 0.32599837 -0.5632269
000180 e8 2a 39 bd 81 87 ee be 6a 7c e2 be 7a 52 7b 3e
       -0.045206934 -0.46587756 -0.44235545 0.24543181
000190 7e d3 35 3e 33 85 40 be 5f e8 57 3f ad 4e ad 3e
       0.17756459 -0.18800811 0.84338945 0.33849087
0001a0 b7 16 d2 bd f0 cb db 3c 0f 5a 6f bf 82 87 90 bd
       -0.10258239 0.026830643 -0.93496794 -0.07057096
0001b0 9a 68 37 bf 34 4e a6 3d 44 c8 5c 3d a4 40 f5 3d
       -0.71643984 0.08120385 0.053901926 0.1197522
0001c0 5f 23 3b bf 18 b7 69 3f 3d 74 a0 3e e4 ef 42 3e
       -0.73100847 0.91295004 0.31338683 0.19036824
0001d0 fa e2 10 3e ad 99 52 be b8 58 9d 3e e1 aa 84 be
       0.14149085 -0.20566435 0.3073175 -0.2591162
0001e0 9b c5 ac be c5 28 1e bf c3 5e e4 3e 29 9e 6b be
       -0.3374451 -0.6178096 0.44603547 -0.23009552
0001f0 bf 37 9e be b4 ee c9 3d 02 ba 27 bf 1e 74 88 be
       -0.30901906 0.09859982 -0.655182 -0.2665109

fc2.weight f4 [128, 128]
000000 05 8c a0 3d 86 a4 1d 3d c0 9c ad 3a 2e 5c a7 3d
       0.078392066 0.03848698 0.0013245568 0.08171879
000010 9e 37 a8 bd 53 44 a3 3e ab 1e a0 bd c5 8b 4d be
       -0.08213733 0.31888065 -0.078183495 -0.20072849
000020 d5 34 13 be 33 18 f8 bb a5 83 27 be 68 f5 20 bb
       -0.14375623 -0.007571244 -0.16358812 -0.0024560336
000030 44 6b 02 bd 6f b1 8a 3d 9c 4f 3a bd a7 fe 20 3e
       -0.031840578 0.06772124 -0.045486078 0.15722142
000040 fa 4d 00 3e e4 35 59 be 3c af 15 be af 4e 72 3d
       0.12529746 -0.21211964 -0.14617628 0.05915707
000050 71 b5 32 3e 9b 9f 83 bd 7d 1a 08 be 2a 5e d2 be
       0.17452027 -0.06426927 -0.13291354 -0.41087466
000060 5e 92 3b 3d 93 8f 83 be 0c 96 bb 3b 24 f1 e2 3e
       0.045793884 -0.25695476 0.005724674 0.443246
000070 21 0b 57 bc aa 78 61 3d 5e da 71 3d df 83 fa bd
       -0.013125212 0.055046715 0.05904614 -0.12232184
000080 9c 0a 95 3d 2d 77 78 bd 6f 4a 7e 3d 49 82 98 3d
       0.07277414 -0.06066053 0.062082704 0.07446725
000090 14 aa f5 3d 0d 80 0c 3e e9 b8 98 3e a3 48 d4 3d
       0.119953305 0.13720722 0.29828575 0.10365417
0000a0 29 a0 fa bd a9 96 13 bd 18 86 e5 bc 48 96 e1 bd
       -0.122375794 -0.036032353 -0.028018042 -0.11014992
0000b0 e1 e0 9e 3d 65 be 14 3e 9c c1 85 bc 94 29 43 bd
       0.07757736 0.14525755 -0.016327672 -0.047647074
0000c0 c1 f2 f5 3d a0 ee 13 be 75 10 99 3d cd 16 4a bb
       0.12009192 -0.14446497 0.07473842 -0.0030836344
0000d0 69 3f 9d 3d c8 f9 0a 3e c7 10 b3 bd a8 c6 6a 3c
       0.0767811 0.13571846 -0.087434344 0.01432959
0000e0 27 90 21 3e cb e6 49 be 61 3f 02 be 13 a8 26 bd
       0.15777646 -0.19716947 -0.1271949 -0.04068763
0000f0 47 dc 0c be 04 47 74 3c 17 80 c6 3d 54 23 20 3e
       -0.13755904 0.01490951 0.096924 0.15638477
000100 fd 2d 89 3c 6f c8 3b 3e ee 96 57 3e 9f f6 4d bd
       0.016745562 0.18338178 0.21053669 -0.050284024
000110 51 14 c1 3c a4 b5 a4 3c 6a ac 1b be 04 19 d4 3d
       0.023569258 0.020106144 -0.1520249 0.10356334
000120 7d 99 40 be de 85 94 3d d4 c5 da bc dc 35 7e 3d
       -0.18808551 0.07252096 -0.02670566 0.062063083
000130 cf 0b 5a be d1 28 e8 3d 52 f0 68 3e 26 23 2a 3e
       -0.21293567 0.1133591 0.22747925 0.1661497
000140 b8 2e 56 3c 37 1e 83 3c 10 f6 aa bd 3a 8f 7e 3d
       0.013072662 0.016005618 -0.08347714 0.06214831
000150 e5 7b 03 3d 24 6b 66 3d 0e d8 fe bb ed eb 62 bb
       0.032100577 0.05625452 -0.0077772206 -0.0034625486
000160 57 69 e6 bd ec 02 fb 3c c9 b6 a4 3d 5f f9 bd 3d
       -0.11250561 0.030641042 0.08042676 0.092760794
000170 fe 16 1e be d6 fd 8a bd bc c4 63 3e bd ea 83 bd
       -0.15438458 -0.067866966 0.22243017 -0.06441257
000180 6d 7f 2e bd a8 b5 0c 3e 11 0f 97 3d d8 04 2e 3c
       -0.04260199 0.13741171 0.073759206 0.010621272
000190 3a 3f be 3d bf 29 1d bd 8e c4 2b 3e fc 6d bf 3c
       0.09289403 -0.03836989 0.16774198 0.023367874
0001a0 14 d3 a8 3d 65 ab ad 3d aa 1e 13 3d 8c fd d6 3d
       0.08243385 0.084799565 0.035917915 0.10497579
0001b0 57 47 30 bd dc 9d 7d be 58 b6 af 3d c0 97 87 3e
       -0.043036785 -0.2476725 0.08579701 0.26482964
0001c0 f7 44 02 be ac 66 4a 3c ed f5 4b 3d 27 d2 98 3e
       -0.1272162 0.01235358 0.04979508 0.29847834
0001d0 e0 5a 78 3c 10 78 16 bd 26 4e f7 3d 66 f1 59 3c
       0.015158385 -0.036735594 0.120754525 0.013302183
0001e0 55 28 91 bd 8e 9a 0a 3d a4 25 31 3e 26 ed 02 3d
       -0.07087771 0.0338388 0.17299515 0.031964444
0001f0 f1 97 e1 bd 89 f6 23 3e cd ba cc bc 2a 36 1a 3d
       -0.11015309 0.16012014 -0.024991417 0.03764931
000200 ad f8 0f bd d9 c4 63 bd 96 7a 65 3d 9f 82 d8 3c
       -0.035149265 -0.05560765 0.05602511 0.026429472
000210 3b 7f ed bc 33 57 4e 3d f6 29 b5 bd 81 ef e9 bc
       -0.028991332 0.05037613 -0.08845894 -0.028556587
000220 04 28 b0 3c 47 08 82 3d 6b 93 3e bd d5 c5 96 3c
       0.021503456 0.06349235 -0.046527307 0.01840488
000230 99 da d4 bd f9 ad bd bd e5 d2 1c bd a1 e6 ab bd
       -0.10393257 -0.09261698 -0.038287062 -0.08393598
000240 29 e6 85 3d 99 a2 a6 3d fa 29 2d ba 0b af 65 bd
       0.0653804 0.08136482 -0.0006605681 -0.056075137
000250 ae 03 90 3d c0 fd c6 3a d0 bd 31 bd ab 05 db bd
       0.07031952 0.0015181825 -0.04339391 -0.106944405
000260 c5 25 5c 3d 11 f3 97 bd 67 fe 9f bd 53 56 81 ba
       0.053746957 -0.07419408 -0.07812195 -0.0009867646
000270 07 b0 99 3c c0 2b b4 3c c0 45 eb 3b 8b 31 2c 3d
       0.018760694 0.021993518 0.0071799457 0.042039435
000280 79 2c 84 3d 79 3d 85 3c b9 57 80 bd 89 de 38 bd
       0.06453795 0.016264664 -0.06266732 -0.0451341
000290 14 88 5e 3d 17 68 83 3d 50 5b 83 3d 51 39 5c bd
       0.054328993 0.06416338 0.06413901 -0.0537656
0002a0 3b 57 5f bc 8a 6f 75 3d 7a 34 1a 3d 87 b7 d5 bd
       -0.013631637 0.059920825 0.0376477 -0.10435396
0002b0 3a 22 df bc 7b 4b 04 3d 9f a7 aa 3d 34 12 8c bc
       -0.027238 0.032298546 0.083327524 -0.017098524
0002c0 1b 10 9f bc 91 58 45 bd 34 53 83 bc 08 71 65 3d
       -0.01941686 -0.048180167 -0.016030885 0.056015998
0002d0 a7 bb 93 3c 7d ff a7 bc c0 a3 51 3d 78 85 6f bc
       0.018033816 -0.020507568 0.051181555 -0.014619224
0002e0 87 a1 98 bc 1f 35 b4 bc c5 9c 7c 3d b6 db 7c 3c
       -0.01863171 -0.021997986 0.061672945 0.015433243
0002f0 93 d5 05 3d 04 d9 8f bd c3 d9 4b bd 25 3c 06 3c
       0.032674383 -0.07023814 -0.04976822 0.0081930505
000300 02 9a 3b bc c1 69 39 bd 84 19 f7 3c b0 ef 65 3c
       -0.011450293 -0.04526687 0.030163534 0.014034197
000310 89 69 84 3b d7 76 9b 3d 05 cb f8 3c 1d 29 d3 3c
       0.004040901 0.07591026 0.030370245 0.02577644
000320 6e d2 cb bd 1c 75 9e bd 58 5a 37 3d 3c 48 b6 3c
       -0.09952246 -0.077371806 0.044763893 0.02225124
000330 ea f7 9c bd ce 82 ee bd dd 14 95 3c 5b 8e 85 3d
       -0.07664473 -0.11646043 0.018198425 0.06521293
000340 03 98 a4 bc e1 9e b0 bd 9e 69 a5 bd 23 cb cb bc
       -0.020092016 -0.08624054 -0.080767855 -0.024877137
000350 20 ce 93 3d d7 d8 a6 bd b0 4f 2e bd 32 d5 e7 3c
       0.072170496 -0.08146828 -0.042556465 0.028299902
000360 8f c5 4b 3d cd 95 93 3d 71 5e 96 3d e7 e1 bd bd
       0.049748953 0.072063066 0.07342232 -0.09271603
000370 32 e1 21 bd 73 76 3f 3c 81 f0 81 3d d3 d8 e9 bd
       -0.039521404 0.011685955 0.063447006 -0.11418309
000380 38 98 2e bd f3 59 22 3d 00 34 4b bd 90 73 9c bc
       -0.042625636 0.039636564 -0.049610138 -0.019098073
000390 1a 13 8f bd 8a 33 6e 3d e3 8d 08 bd 20 cd dd bb
       -0.06986065 0.05815462 -0.03333844 -0.0067688376
0003a0 43 b7 9c bc bb 69 85 3d 59 0b 8c bd 4c 7f e1 3b
       -0.019130355 0.06514307 -0.06838102 0.00688163
0003b0 7f 6e fb 3b 97 3f 7f bd 4d f3 92 bb 7c 98 6b 3d
       0.0076730843 -0.062316503 -0.00448457 0.057518467
0003c0 4e 81 87 3b 65 55 e2 bd 1b 24 6b bd 57 72 ba bd
       0.0041352874 -0.11051444 -0.05740748 -0.0910384
0003d0 c4 d9 b8 bc 61 fd 85 bd ac 0b 7f bd 4f 61 1f bd
       -0.022564776 -0.06542469 -0.06226699 -0.03891116
0003e0 c8 20 67 bd a6 c3 d4 3c 54 db 4e bd 39 e5 7e bd
       -0.056427747 0.025972199 -0.050502136 -0.062230323
0003f0 0c d6 40 3c 6b 73 a5 bc 40 b3 c2 bd 2a 58 42 3d
       0.011769783 -0.020196637 -0.095068455 0.04744736

fc2.bias f4 [128]
000000 67 5d 41 be b9 c4 2c 3c 84 c8 cc 3d 83 e0 31 bd
       -0.18883286 0.010544949 0.09999183 -0.043427
000010 99 d2 84 be 22 85 7e 3e bc 09 7c bd 55 b6 68 bc
       -0.25941923 0.24855474 -0.06153272 -0.014203628
000020 6f 1d 37 bd 09 fb 35 3e ac e3 3f be dc 57 5d be
       -0.044705804 0.17771544 -0.18739194 -0.21615547
000030 18 8b 26 be e0 eb b4 3e b2 d4 0c 3e ee 32 8b bd
       -0.16263998 0.35336208 0.13753012 -0.067968234
000040 38 fe 66 bd 33 6d af bd a2 b3 a1 bd 7e a9 37 bf
       -0.056394786 -0.0856575 -0.0789559 -0.71743
000050 6f 8c 5c 3e 0c 44 53 3e 55 f9 c0 3c c0 ed 97 3e
       0.21537946 0.20631427 0.02355639 0.29673576
000060 4a ca 01 3f 6a a4 eb bd 08 12 bf bc 8e f0 92 3e
       0.50699294 -0.11505969 -0.023324028 0.28699154
000070 6f 6e 77 3e fb 3a 32 be f9 98 02 be a8 1e 3e bc
       0.24163221 -0.17405312 -0.12753667 -0.011603989
000080 6a 41 14 3f 54 08 89 3c 8d 15 b3 3c 57 cf 02 3e
       0.57912314 0.016727604 0.021860862 0.12774406
000090 ec 6a bf 3d a3 6f 2b 3e 6a d8 b3 bd 99 2a a6 be
       0.093465656 0.16741805 -0.08781512 -0.32454374
0000a0 b0 73 1e bb d5 6a 11 bf 1c 3b 8d bc 74 91 f7 bc
       -0.0024177842 -0.5680364 -0.0172401 -0.030220725
0000b0 f4 48 39 bf 97 85 8b bd 7b 2c 86 bc ae 93 92 3d
       -0.7237694 -0.068125896 -0.016378632 0.07157074
0000c0 9c 60 60 bd eb 79 36 bd 1b b8 cd 3c aa ff 8f 3e
       -0.054779634 -0.044549864 0.025112202 0.28124744
0000d0 65 75 9e bd 58 f3 b7 bd 4a fc c4 3e eb d8 a2 3d
       -0.07737235 -0.08981961 0.3847373 0.0795153
0000e0 2a 8d b0 3d 42 d9 c5 bd 00 ea 40 bd d1 ef 68 3d
       0.08620675 -0.09660579 -0.04709816 0.05686933
0000f0 4a 2e 2e 3e 30 46 80 bc c0 de 9f 3e 54 45 ee 3e
       0.17009845 -0.015658468 0.31224632 0.46537268
000100 91 23 ad be 7d 60 45 3c 91 46 03 bd c6 d4 d8 3c
       -0.33816198 0.01204693 -0.03204972 0.026468646
000110 eb fc 7c 3d c5 37 cf 3e 42 51 8f bd 6b 2d f6 bc
       0.06176464 0.40472236 -0.069979206 -0.030050954
000120 7c 2b 81 bd 10 f7 61 3e 23 5a 4b 3d 45 83 e9 bc
       -0.06307122 0.22066903 0.049646508 -0.028504977
000130 7a 7e 47 bd 0a fa e4 3e 77 4c 67 3e 79 48 c2 3d
       -0.0487046 0.44722015 0.22587763 0.09486479
000140 5c f1 c4 bd 00 7e a1 be 25 b4 ef bd 5f 44 ba 3d
       -0.09616348 -0.31541443 -0.11704282 0.09095072
000150 e9 fc 4f bf 9e 5b ca 3d b7 03 08 bf ae f5 00 3e
       -0.81245285 0.09880756 -0.5313067 0.1259372
000160 1d 39 9d 3d 0a 6d d2 3d 29 58 75 3e b6 3b 08 bc
       0.07676909 0.10274704 0.23959412 -0.008315017
000170 80 d4 66 bd 76 c1 42 3d ed 49 cd 3c 85 67 4d be
       -0.056355 0.04754778 0.025059665 -0.20059021
000180 69 53 ec 3c 25 1a b9 bd 5b 90 d3 bc 97 3b 20 3f
       0.028848367 -0.0903819 -0.02582567 0.62590927
000190 bc 36 b7 bc 33 91 22 3d cb 6a 8c 3c 9a 40 3a 3d
       -0.022364967 0.039689254 0.017140767 0.045471765
0001a0 84 2c 6c 3d d3 2c 26 3c 15 ec 88 bd e2 a2 3a bd
       0.05765964 0.010142523 -0.06685654 -0.045565493
0001b0 05 db 84 3d 76 79 de bb 99 2a 1a bf 20 ac ee 3c
       0.06487087 -0.0067893816 -0.6022125 0.02913481
0001c0 c8 a9 97 3d a6 d5 e8 bd 32 9a 8a bd 93 82 cc bd
       0.0740543 -0.11368875 -0.06767692 -0.099858426
0001d0 d5 91 4a bd 94 95 56 bd bf 1d 28 3e 61 45 75 bc
       -0.049455483 -0.052388743 0.16417597 -0.0149701545
0001e0 8a 76 ca bd e1 61 11 bb c1 ae db bd bf f5 8c 3a
       -0.09885891 -0.0022183585 -0.10726691 0.001075439
0001f0 27 a7 19 bf d1 75 3c bd aa 86 0b 3f 36 5b 8b bd
       -0.6002068 -0.046010796 0.54502356 -0.068045065

fc3.weight f4 [64, 128]
000000 74 20 0e 3e af b8 60 bd 5a e2 b2 3d ad 0f 42 be
       0.13879567 -0.054863628 0.087345794 -0.18951292
000010 b4 72 66 be 4e 9b d9 be 06 86 58 bd 3a b1 fa 3c
       -0.22504693 -0.425013 -0.05286219 0.030602086
000020 53 c5 97 bd 80 ba 24 bd 94 e9 7f 3d 18 5d 54 3e
       -0.074106835 -0.040216923 0.062478617 0.20738637
000030 7a 24 00 be 50 f5 bf bd cb 8f ea bd 85 d1 b2 3b
       -0.12513915 -0.093729615 -0.114532076 0.0054571056
000040 10 86 04 be 27 56 2e 3d c0 e2 25 bc 99 5a 60 be
       -0.12941766 0.04256263 -0.010124862 -0.2190956
000050 96 ae d4 3d ba 46 9f be 08 5b 9f 3d a5 00 0d 3e
       0.10384862 -0.31108648 0.07781035 0.13769777
000060 bb 1a 34 bd 04 c5 f9 b8 66 38 88 bd 5e ac 37 be
       -0.043970805 -0.00011909942 -0.06651382 -0.17936847
000070 6c 5d 93 be 4d fe 83 bd ad 8f 9f bd 6e 88 a0 3d
       -0.28782213 -0.064449884 -0.07791076 0.07838522
000080 da d7 d8 3d e4 a7 88 3d 2e 9a 9e bd d9 e0 c4 be
       0.105880454 0.066726476 -0.07744251 -0.38452795
000090 60 db b6 be a0 d7 d7 bc 95 72 1d ba ef 7f 96 be
       -0.35714245 -0.026347935 -0.0006006149 -0.2939448
0000a0 8e 94 67 bd f2 c0 0f 3d 34 f4 81 bc f2 43 0d 3d
       -0.056538157 0.035096116 -0.015863515 0.034488626
0000b0 e3 28 49 3d 10 59 a7 3d 00 a5 18 be fa f4 a2 bc
       0.04911126 0.08171284 -0.14906693 -0.019892205
0000c0 77 7c 8e bd 60 eb 66 bd 00 e5 b0 3e 8d aa 6c 3e
       -0.069573335 -0.056376815 0.34549713 0.23111935
0000d0 84 cc ee bc d0 6f 9b bb 48 11 87 bd 4e 30 71 3d
       -0.029150255 -0.0047435537 -0.06595093 0.058883958
0000e0 35 df d3 3d f2 ec 8c 3d 08 b2 c8 3c 19 df 6f 3b
       0.10345308 0.06881131 0.024498954 0.0036601482
0000f0 97 48 a9 be e6 42 5b 3d 1d 14 f8 bc bf 2f f1 bd
       -0.33063194 0.053530596 -0.030283028 -0.11776685
000100 20 db e6 bd 15 66 88 bd 10 9f cb 3d 8f 74 c4 3d
       -0.112722635 -0.066600956 0.09942448 0.09592544
000110 30 d4 f2 bc 9d 04 95 be ff 15 9d 3d 71 cc ca 3d
       -0.029642195 -0.29105082 0.07670211 0.09902275
000120 ef 0a a3 bd 87 47 c1 3d 74 59 08 bc 02 e0 de 3c
       -0.0796107 0.09437471 -0.008322109 0.027206425
000130 38 95 8e 3d a6 e6 9f bd 47 cf a4 be 6e 49 f0 bd
       0.06962055 -0.078076646 -0.3218939 -0.117327556
000140 51 5f f7 bc e2 1f 11 be ee 1d b8 bd 31 4f 8b bd
       -0.030196818 -0.14172319 -0.08990084 -0.06802214
000150 4d 82 67 bd 6c 64 1a 3e 38 b0 28 be a0 d1 7a be
       -0.05652075 0.1507737 -0.16473472 -0.24494028
000160 1f 77 ef 3e 0d 35 6e bd 98 10 45 3e ac b4 8c bd
       0.4677057 -0.058156062 0.19244611 -0.06870398
000170 9b 28 52 3c 1a ca 1a be a3 c3 a8 be 86 cc fa 3d
       0.012827064 -0.15116158 -0.3296176 0.12246041
000180 b0 85 39 bc c3 aa 40 bd dd 33 65 bd 1b 49 f8 3e
       -0.0113233775 -0.04703785 -0.055957664 0.48493275
000190 20 4d 0f bd a7 de 72 3a 08 3a 83 3c b6 9a 1d 3f
       -0.03498566 0.0009264745 0.016018882 0.61564195
0001a0 a9 e8 88 3d 7b d1 39 bd 8f 7b a4 3c 0b ec 46 bd
       0.066850014 -0.04536579 0.020078449 -0.048564952
0001b0 43 6f 09 3d e9 61 6e 3c 19 27 19 bf 00 fc 8d 3a
       0.033553373 0.014549711 -0.59825283 0.0010832548
0001c0 a3 63 cb be cb 40 e7 3a 91 9d 9f 3d 3e bd 0c 3d
       -0.39724454 0.0017643211 0.07793725 0.034360163
0001d0 a5 5e c3 3c 94 d6 70 bb 88 7e 44 3e c5 82 e7 3c
       0.023848841 -0.0036748992 0.19188893 0.028260598
0001e0 40 92 ec bd 18 69 0e bc a3 98 c5 bc e3 31 a5 bd
       -0.115513325 -0.0086920485 -0.024120634 -0.08066156
0001f0 81 d5 4c be 08 a4 9a 3c d9 fc f3 bc ed 4a 8f 3b
       -0.2000332 0.018877044 -0.029783653 0.0043729455
000200 ca 83 dd 3b 21 e0 5e 3b 87 3c 4e 3d 4d 1d 42 3e
       0.0067600952 0.0034008103 0.050350692 0.1895649
000210 ce c0 2f be d6 94 55 3e c3 53 2a bd 18 1d 83 3d
       -0.17163393 0.20857558 -0.041583788 0.064020336
000220 8f 85 a1 3e 9f 43 b9 3d 5b 44 15 be 9b c4 ad be
       0.3154721 0.09046101 -0.14576857 -0.3393906
000230 cc 0a c5 be f0 75 13 3e fa d4 9c 3e 3a 5d bc bd
       -0.384848 0.14400458 0.30631238 -0.09197469
000240 db 42 49 3e fe d4 97 3c cc b8 93 3d b1 67 27 be
       0.1965441 0.01853418 0.072129816 -0.16348149
000250 a8 f2 af bc 0f a7 b8 3d 75 ef 66 3d 36 14 d9 bc
       -0.021478012 0.09016239 0.056380708 -0.026498895
000260 1c 26 49 3e 47 ce 68 3b 8c bb 4c 3e b7 15 07 3e
       0.19643444 0.0035523342 0.19993418 0.13191877
000270 ec 2d e2 3d b0 42 8a be 63 59 aa 3d c0 47 e2 3b
       0.11043915 -0.27004004 0.083178304 0.006905526
000280 a0 fa d2 bd 9a 25 e6 3d 70 ba 8e bd e8 22 19 3e
       -0.10301709 0.11237641 -0.06969154 0.14954722
000290 3c 41 3e 3e 71 eb bf 3c e2 dd d1 3d 82 d6 a4 bd
       0.18579572 0.023427697 0.10247399 -0.080487266
0002a0 01 83 c2 bd 3c 7a 23 be e8 9f df bc 24 e8 32 3d
       -0.09497643 -0.15964597 -0.027297929 0.043678418
0002b0 bd 76 9c bd 0d 35 a4 bd f3 45 d8 3c dc 25 08 3d
       -0.07639835 -0.08017931 0.026400542 0.03323923
0002c0 03 6e 98 3c e1 5a 1f 3b d0 8d c0 3c c3 c0 ee bc
       0.018607145 0.0024315643 0.023505121 -0.02914465
0002d0 8a 0f 5c 3d db 18 60 bd 59 34 56 3e 60 1c 13 3b
       0.053725757 -0.054711204 0.20918407 0.0022447333
0002e0 3f f1 18 3e b9 d8 82 3d 6a e5 5a 3d ae 50 90 bd
       0.14935778 0.06388993 0.053441443 -0.070466384
0002f0 5d 54 70 3b cc ef f8 3c 56 87 df 3d bf 68 ef 3e
       0.0036671378 0.030387782 0.10914485 0.46759602
000300 ad 19 b5 be 1e 36 7c bd 62 7f 25 3e 09 ad 19 bc
       -0.35371152 -0.061575048 0.16161874 -0.009379634
000310 f4 70 31 3d 98 ba c8 3d 99 ce 6b 3d d8 08 52 be
       0.04332061 0.09801215 0.057570074 -0.20511186
000320 1a 0d 84 3d ff 51 12 bd 3b 47 ac bc 77 20 63 3c
       0.064478114 -0.03572273 -0.02103006 0.013862721
000330 68 69 89 bc 09 85 4d bf 15 e3 49 3e 75 a2 02 bd
       -0.016773894 -0.8028112 0.19715531 -0.031893212
000340 ac 66 33 3d ef b0 c9 3d 0c a3 19 bd 69 57 76 3e
       0.043799087 0.098482005 -0.03750901 0.24056782
000350 c5 27 b6 be 88 bc a9 3d 13 92 2a bd 31 b5 88 3d
       -0.35577217 0.082879126 -0.041643213 0.066751845
000360 27 ca 5b 3d 02 28 fa 3c d6 4c 37 bd de 37 5e bc
       0.053659584 0.030536655 -0.04475101 -0.013563124
000370 c3 f0 0b 3c 3f 64 6b 3e 8b e3 67 3e ad a6 fb be
       0.008541289 0.2298746 0.22645395 -0.491506
000380 ab 11 cc bd 04 5b e5 3c 93 55 10 bd 67 00 d1 3d
       -0.099643074 0.027997501 -0.03523786 0.10205155
000390 b3 e0 d8 bb 55 ba 0d 3d 93 f5 1e 3e 4a 5b 3f be
       -0.006618583 0.03460153 0.15523367 -0.18687168
0003a0 d1 f5 68 3d d2 28 cc bd 62 85 e5 3b 1d c9 82 bd
       0.056875054 -0.09968723 0.007004426 -0.063860156
0003b0 f7 02 5a 3d 82 f1 61 3e e3 60 51 3e f0 48 46 bc
       0.053225484 0.22064784 0.20447116 -0.012102351
0003c0 21 b1 d1 bd 33 55 d7 3d b0 3b c8 3c fb 0c 84 3c
       -0.10238863 0.10514297 0.024442524 0.01611947
0003d0 ce 03 2b 3d 7b e5 bc bd 35 5f 00 3d 83 c7 87 bd
       0.041751675 -0.092234574 0.031340797 -0.06629851
0003e0 f6 9c e7 3d c8 01 5b bd a3 6e 7e 3a ed e7 13 3d
       0.11309235 -0.053468496 0.0009705817 0.036109854
0003f0 68 93 ce bd 9b 4c 07 3d 9e ea 33 3c a5 d5 b2 bd
       -0.10086709 0.03303204 0.01098123 -0.08732156

fc3.bias f4 [64]
000000 7e 1b e6 3e c7 9e af 3e 2e 26 30 3f df dd 69 bc
       0.4494285 0.34300825 0.6880826 -0.01427409
000010 f4 df cb 3c 6d 1f e2 3c 3f 99 0f 3e 81 d5 06 be
       0.024887063 0.027602876 0.14023302 -0.13167383
000020 e5 8f 03 bf 88 83 19 3f 9c 89 02 be 14 45 0d 3d
       -0.5139144 0.59966326 -0.12747806 0.034489706
000030 bd 9d a7 3e 5e c6 10 3f 85 ee 4b be 8d 4c 31 3e
       0.32737532 0.56552684 -0.19915207 0.17314358
000040 62 56 5e bd 11 31 30 3d 03 58 63 bd 17 44 23 3f
       -0.0542816 0.043015543 -0.055503856 0.6377577
000050 c1 b8 f7 3c 71 96 8a bd aa dc 12 3f ae 4c 98 bf
       0.030239465 -0.06766976 0.57367957 -1.1898401
000060 1f a5 01 3e 46 84 23 3f 22 17 90 be de e6 cd 3e
       0.12660645 0.6387371 -0.2814265 0.402152
000070 4b 55 60 3e 1b ef 8a 3f da 97 b0 be 33 bc 9c 3e
       0.21907537 1.0854219 -0.34490854 0.30612335
000080 01 5a 65 bc 7f 97 c4 bd d5 af 3c 3d 01 30 ae be
       -0.013998509 -0.09599208 0.046066124 -0.34021
000090 b5 cf 95 bc 1a 58 e1 bd e8 4a 7b 3e 4b 81 2b bf
       -0.018287519 -0.11003132 0.24540293 -0.6699416
0000a0 08 97 4e 3e 17 b3 9d 3c 59 ee 3a bf 5d 48 ab bd
       0.20174801 0.019250436 -0.7301994 -0.083634116
0000b0 3e 89 42 3e 58 f7 e0 be fb c1 f7 3d 00 d0 aa bd
       0.18997666 -0.43938708 0.12097546 -0.08340454
0000c0 47 4c 39 be 63 73 00 bf 59 a9 54 be 89 e2 93 3d
       -0.18095504 -0.50176066 -0.20767726 0.072209425
0000d0 4d ab e6 3e 22 a0 6e be 34 44 5b 3e dd a2 78 3f
       0.45052567 -0.23303273 0.21412736 0.9712351
0000e0 14 7c 10 3d 7a d3 fe bd 06 f7 03 be 24 af 37 bf
       0.03527458 -0.1244268 -0.128872 -0.7175162
0000f0 49 89 eb 3d 7e d9 ce 3e bb 79 33 bf 12 48 85 3e
       0.115007944 0.40400308 -0.7010762 0.26031548

out.weight f4 [4, 64]
000000 37 f0 a3 3e 1f 4c 39 be 87 2f 24 be b5 74 31 be
       0.32019207 -0.18095444 -0.16033755 -0.17329676
000010 7e 6d a4 3d 17 5e 77 3d c5 a0 d5 bd 0c 2d b4 3e
       0.080286965 0.060392465 -0.10431055 0.35190618
000020 3d 66 d7 bd 12 ca 28 3e ba d6 1b 3d ff 75 d8 bd
       -0.10517547 0.16483334 0.038046576 -0.10569381
000030 22 61 6b be 60 95 08 be c2 70 98 3a b5 02 9d 3c
       -0.22986272 -0.13338232 0.0011630284 0.01916633
000040 06 ad 99 be b1 71 a2 be da 60 2d bd 2b cc e4 be
       -0.3001482 -0.31727365 -0.042328693 -0.44687018
000050 2e 15 a4 bd ee 24 03 bf c0 21 45 3d f3 78 0c 3e
       -0.08011852 -0.51228225 0.04812789 0.13718013
000060 ba 5a 8b be 8c 84 8c be ad 2a 7a be 2d 03 b5 be
       -0.27217656 -0.27444875 -0.24430342 -0.35353985
000070 76 34 57 be e3 d3 40 be eb 47 94 3d ea af 56 be
       -0.21016106 -0.18830828 0.0724028 -0.20965543
000080 67 42 d3 3e 3c 61 25 3e a6 ce ed bd 9a f0 00 3f
       0.41261598 0.16150373 -0.11611681 0.5036713
000090 92 6a 31 be eb 35 cd 3e 5e b0 3c bd b3 05 72 3c
       -0.1732581 0.400802 -0.046066634 0.014771867
0000a0 51 7a a2 be 05 7c 1f be 36 ce d1 3e 23 66 bc 3d
       -0.31733945 -0.15574653 0.4097764 0.091991685
0000b0 d8 fb 94 3e 54 33 84 3d 2e 5f 5d be 06 57 4f bb
       0.29098392 0.064551026 -0.2161834 -0.0031637563
0000c0 b9 81 7b be fb 0d 1d 3d d1 81 f6 bd 31 b3 c3 3d
       -0.24561204 0.03834341 -0.12036479 0.095556624
0000d0 f6 d8 04 be 9a 92 8a 3d 29 6c 88 be e6 f8 da bd
       -0.12973389 0.06766243 -0.2664502 -0.10692005
0000e0 ea 04 69 bd 75 ed a3 3c 20 ed e6 3d 97 e8 18 be
       -0.056889452 0.02001069 0.11275697 -0.14932476
0000f0 fd 18 67 be e7 5c 82 3e 62 c9 95 3d 07 2f e5 bd
       -0.22568126 0.25461504 0.07313801 -0.111906104
000100 9e c4 c4 3e fb c3 4b be 4e db 0b bf 85 33 6b be
       0.38431257 -0.1989898 -0.5463151 -0.22968872
000110 a3 90 31 3d eb 3c 0c be 09 fb db be 7e 57 6b be
       0.043350827 -0.13695113 -0.42964962 -0.22982594
000120 e2 78 11 3e 6c 58 e6 be 52 c5 81 3d 11 79 58 be
       0.1420627 -0.44989336 0.06336464 -0.21139933
000130 e8 6a 27 3d 82 52 5f be 25 20 e7 bd 54 41 82 3e
       0.040873438 -0.21808818 -0.11285428 0.25440466
000140 97 dd 8e be 3a 64 d0 be f4 0d 27 3d 4f 9e cc be
       -0.27903435 -0.40701467 0.04078479 -0.3996453
000150 57 0f 2c be 8f 66 e4 be 91 3b c9 be 0e cb cf 3e
       -0.16802727 -0.44609496 -0.39303258 0.40584606
000160 0a 44 1e be fc b2 5a be 18 ac 8d 3b 18 b5 a4 3d
       -0.15455642 -0.2135734 0.0043234937 0.080423534
000170 7b 28 2b be cd e9 59 be a3 a3 81 3e 0f 2c a7 be
       -0.16714661 -0.21280594 0.25320157 -0.32650802
000180 26 07 a2 be 9e 75 db 3c 0a 46 32 3d 46 e1 f9 3e
       -0.3164608 0.026789483 0.043523826 0.48804682
000190 4f 52 9b bd 25 05 e4 3e f5 c8 be be 91 06 be 3e
       -0.075840585 0.44535175 -0.37262693 0.37114385
0001a0 45 dd 0b be b0 a9 b0 3d ac 2c 51 3f 83 13 fb 3c
       -0.13658626 0.08626115 0.8170879 0.030648952
0001b0 bf ed 86 bc 75 d9 44 3e aa d4 ae be 05 fe 57 3d
       -0.016470788 0.19223578 -0.34146625 0.052732486
0001c0 53 ae ab bd ba e8 86 be f8 b4 dd bb 13 ae d8 3e
       -0.08382859 -0.2634943 -0.006765958 0.42320308
0001d0 4a 42 bc bd 7b 22 d3 3b 38 6d 2c be 7c bf ad be
       -0.09192331 0.0064433194 -0.16838539 -0.33935153
0001e0 61 4c 66 bd 9f b6 63 be b8 02 7b 3d fc a5 4f 3f
       -0.056225184 -0.22237633 0.06128189 0.8111265
0001f0 24 b6 87 be d2 fc e8 3e 55 ea 21 3f 6b e4 f0 bd
       -0.2650615 0.45505387 0.6324819 -0.11762317
000200 e5 8f 40 3f 12 82 b7 bd b2 aa 68 3e 3a 7c 60 be
       0.75219566 -0.08960356 0.22721365 -0.21922389
000210 78 4e 84 3c 94 d8 9f 3d 4c 0c a4 be 37 e8 1e be
       0.016150698 0.07804981 -0.32040632 -0.1551827
000220 4e fa 23 be 40 04 c6 bd 2b b2 17 3b 0f a7 62 be
       -0.16013452 -0.096687794 0.0023146968 -0.2213404
000230 08 4d 9e 3d 61 e8 cc bd fa d8 67 bd a3 47 43 3f
       0.07729536 -0.1000526 -0.05660341 0.76281184
000240 fd 31 6f be 86 03 cd bd 1b 39 f4 3c 33 cc 49 3f
       -0.23358913 -0.10010438 0.029812386 0.7882721
000250 d0 e6 4e be 0e 9e 56 be dc b2 0b 3f 8a fb e7 be
       -0.20205235 -0.2095873 0.5456979 -0.45309097
000260 34 c7 66 be c9 f1 b5 bc e6 67 1e be 63 c8 96 3d
       -0.22536927 -0.022210019 -0.15469322 0.073624395
000270 84 f9 c0 bd 02 4d 3a 3e d4 4b b6 be bc 12 73 be
       -0.09422591 0.18193439 -0.35604727 -0.23737615
000280 34 c5 9f 3e f6 65 30 3f 9b 04 91 3b ee cc b5 3e
       0.31205142 0.6890558 0.004425598 0.3550791
000290 a5 b3 5a be 0c ee 8c be 57 c9 d6 be 35 53 11 3e
       -0.21357591 -0.27525365 -0.41950485 0.14191897
0002a0 26 aa 84 be 7f 89 e8 be 94 39 ea 3d 9c 8b a3 3b
       -0.25911063 -0.454174 0.114367634 0.004991008
0002b0 91 46 d3 3e f1 8a 1a be aa f1 7e be 7d 48 89 bc
       0.41264775 -0.15092064 -0.24896875 -0.016758198
0002c0 dd ed 63 be 1e 83 85 be 38 5a 9d be c8 90 33 be
       -0.22258706 -0.26076597 -0.30732894 -0.17535698
0002d0 e9 45 03 3e 69 66 e0 be 94 d2 46 be dd ed 0a 3e
       0.12819637 -0.43828133 -0.19416267 0.135673
0002e0 33 98 ac bb 10 79 cb be 5c 8f f6 3c e5 d9 b0 3e
       -0.005267167 -0.397408 0.030097656 0.3454124
0002f0 e7 22 9f be 06 41 07 3f 92 be 04 3e 4e d7 0a be
       -0.31081316 0.5283359 0.12963322 -0.13558695
000300 cd 7b c0 3e 5f 44 84 be 4b 4d f3 3d 03 8f b1 be
       0.37594453 -0.25833413 0.11879977 -0.34679422
000310 35 b2 62 3d d2 7c d5 bc 00 22 29 bd 2b 35 28 3e
       0.055345733 -0.026060496 -0.04129219 0.16426532
000320 aa 18 84 3e 76 be 9f be 9f e8 0d 3d 86 5f f3 bd
       0.25800067 -0.31199998 0.034645673 -0.11883454
000330 50 71 89 be 61 88 00 be e7 1b 44 3e 05 4c 8e be
       -0.26844263 -0.12552024 0.19151269 -0.27792373
000340 e6 75 42 bd 87 be 66 be 92 f8 65 3d 8c a6 96 3e
       -0.047475718 -0.22533618 0.05614526 0.2942394
000350 7d 2b 79 bd 24 4f 60 3f d4 6c 59 3e 91 6b 1d be
       -0.06083249 0.8762076 0.21232921 -0.15373065
000360 8c 29 34 be 27 c3 82 be 87 5b 1b bd 77 97 b8 be
       -0.17593974 -0.25539514 -0.037929084 -0.36053059
000370 7a 18 cb bc 71 0d e2 bd 7d fa 14 bf 3f 0e 89 be
       -0.024791945 -0.1103772 -0.58194715 -0.2676868
000380 50 2a d9 be 32 35 5a 3f 90 cc 55 3d 45 c0 bb 3e
       -0.42415094 0.8523742 0.05219704 0.36670128
000390 86 5d 26 be 65 18 9e 3e 21 e6 1a be 05 15 48 3e
       -0.16246614 0.30877987 -0.1512685 0.19539268
0003a0 02 7c a3 be f0 d7 fa 3c 6a c8 0e 3f c1 b9 8d 3d
       -0.31930548 0.030620545 0.5577456 0.06920195
0003b0 06 8d d3 be 48 fa 61 3e 3c c8 61 be c0 85 88 bd
       -0.4131853 0.22068131 -0.2204904 -0.06666136
0003c0 8e e3 87 be 2c ab 93 3d dc 94 44 be 84 9f b9 3e
       -0.26540798 0.07210383 -0.1919741 0.36254513
0003d0 80 99 90 be bc 2f 6a 3d 2a ad f7 bd 66 81 89 be
       -0.2824211 0.05717443 -0.12093575 -0.26856536
0003e0 25 26 25 bd 12 00 49 be 55 d0 c1 bd cd 64 81 3e
       -0.04031958 -0.19628933 -0.09463564 0.25272217
0003f0 7a 00 76 be 5d 93 e4 3e 52 95 61 be a1 3b 5f be
       -0.2402362 0.4464368 -0.22029617 -0.2180009

out.bias f4 [4]
000000 75 61 80 be fc 72 60 bf 0d ea 2a 3f d2 8e b3 be
       -0.25074354 -0.8767545 0.66763383 -0.350699
