models/LunarLander_DQL_18162.pt (torch, 108072 bytes, 8 tensors)

fc1.weight f4 [128, 8]
0	0xbe1df0d3	-0.15423898
1	0x3c70325d	0.014660445
2	0x3e0fd418	0.14045751
3	0x3ec8f907	0.39252493
4	0xbf094c46	-0.5363201
5	0x3e3bd125	0.18341501
6	0xc027accf	-2.6199224
7	0xc00cff6a	-2.2030892
8	0x3c227c7d	0.009917376
9	0xbe280c23	-0.1641088
10	0x3e450700	0.19240952
11	0x3d95af10	0.07308781
12	0x3e9f2ddf	0.31089684
13	0xbe207e7a	-0.15673247
14	0xc0616579	-3.5218184
15	0xbf97db17	-1.1863736
16	0xbda053a4	-0.07828453
17	0xbe5ab3a4	-0.2135759
18	0xbe7941a8	-0.24341452
19	0x3e6b5bbe	0.22984216
20	0x3c6bdfe0	0.014396638
21	0x3d7b3628	0.061330944
22	0xbd8b5030	-0.06802404
23	0x3e067720	0.1313138
24	0x3e30694e	0.1722767
25	0x3de5cc81	0.11220647
26	0xbeb59a01	-0.35469058
27	0x3ed8b067	0.42322084
28	0xbed9401b	-0.4243172
29	0xbee99f5a	-0.45629388
30	0xbf594a8b	-0.8487937
31	0xbf52d8d8	-0.8236213
32	0x3e4ccb33	0.1999939
33	0x3e217111	0.15765788
34	0xbf0d49a7	-0.5519051
35	0x3e6a7f96	0.22900233
36	0xbe60c398	-0.21949613
37	0x3e380abf	0.1797285
38	0xbec32bc3	-0.38119325
39	0xbf611260	-0.87918663
40	0xbe045631	-0.12923504
41	0xbea882a8	-0.32912183
42	0x3e826aa4	0.25471985
43	0xbe3f0516	-0.18654284
44	0xbe848c76	-0.25888413
45	0x3e9999b8	0.3000009
46	0x3f9193be	1.1373212
47	0x3e87ece8	0.26547933
48	0xbecd365f	-0.40080544
49	0x3e71ffbc	0.23632711
50	0xbcf4de19	-0.02989106
51	0xbee83a0f	-0.45356795
52	0x3defcc58	0.11708897
53	0xbdc416cb	-0.0957466
54	0x3e8aafb9	0.2708719
55	0x3eaace21	0.3336039
56	0xbe642f94	-0.22283775
57	0xbe157f9a	-0.14599457
58	0xbea8b208	-0.32948327
59	0x3e92b406	0.28652972
60	0x3ed6480f	0.4185185
61	0x3ebc31de	0.36756796
62	0xbd2482f4	-0.04016395
63	0xbf3904d7	-0.7227301
64	0xbe5649de	-0.20926616
65	0xbe076279	-0.13221158
66	0xbe14d15f	-0.14532994
67	0xbef29219	-0.4737709
68	0x3ea7105d	0.32629672
69	0x3e4de220	0.20105791
70	0xbec39c85	-0.38205352
71	0xbe637eb2	-0.22216299
72	0x3cbf44b4	0.02334819
73	0x3d6e83d0	0.058231175
74	0xbe301c63	-0.17198329
75	0x3ebcf744	0.369074
76	0xbe858c9a	-0.26083833
77	0x3e39ad3e	0.18132493
78	0x3f88ae86	1.067826
79	0xbed3e5d1	-0.41386274
80	0x3ce2c0fe	0.027679916
81	0x3ee51280	0.44740677
82	0xbe24ba2d	-0.16086645
83	0xbf026e93	-0.5094997
84	0xbda1c5fe	-0.07899092
85	0xbe13b7a0	-0.14425516
86	0xbfade2d6	-1.358485
87	0xc01178c3	-2.2729957
88	0xbde6ffb0	-0.11279237
89	0xbe9eba8c	-0.310017
90	0xbb85d377	-0.0040840465
91	0x3cd7d91c	0.026348643
92	0xbe14df6e	-0.14538357
93	0x3e7c71d9	0.24652804
94	0x3f84aa17	1.0364407
95	0x3f6159c5	0.880276
96	0xbc5748a7	-0.01313988
97	0x3c80adc7	0.015707863
98	0x3e16b499	0.1471733
99	0xbf17640b	-0.5913703
100	0x3eec300c	0.46130407
101	0xbda12986	-0.07869248
102	0x3f8a8e94	1.0824761
103	0x3ee4aba0	0.4466219
104	0xbf45d1ab	-0.7727305
105	0xbc3ef37e	-0.011654733
106	0x3d7171b8	0.05894634
107	0x3ec65335	0.38735357
108	0x3e9fbf2e	0.31200546
109	0x3d872d02	0.066003814
110	0x3ca02c98	0.019552514
111	0x3e7bd624	0.24593407
112	0xbe9bef18	-0.30455852
113	0xbeb9fba0	-0.36324787
114	0x3dba32d0	0.09091723
115	0xbc2d943b	-0.010594423
116	0xbe325a89	-0.17417349
117	0x3ea45694	0.32097304
118	0x3fff27c2	1.9934008
119	0xbe8bc2cd	-0.2729706
120	0xbd873f0a	-0.066038206
121	0x3e4a57e5	0.19760092
122	0x3e8b526d	0.27211323
123	0x3ee5d0f8	0.44885993
124	0xbddd9a3d	-0.10820434
125	0xbf155d44	-0.5834544
126	0xbf1615c8	-0.58626986
127	0xbef3e72d	-0.4763731
128	0xbe38f9b9	-0.18064012
129	0xbe8358ef	-0.25653788
130	0x3e0ba00f	0.13635276
131	0x3e0253bd	0.12727256
132	0xbec288a7	-0.37994882
133	0x3e737f2b	0.2377898
134	0x3d928356	0.071539566
135	0xbe738cbb	-0.23784153
136	0x3e1eefa3	0.15521102
137	0xbe731885	-0.23739822
138	0xbe5d3fe5	-0.21606405
139	0xbdcb3027	-0.09921294
140	0xbecac7e8	-0.3960564
141	0x3ebecfba	0.37267858
142	0x3ee070dc	0.43836105
143	0x3e924544	0.2856847
144	0x3dba803a	0.091064885
145	0xbe588ca4	-0.211474
146	0xbebfe674	-0.3748051
147	0xbe12996a	-0.14316335
148	0x3e573ee8	0.2102009
149	0x3da1a019	0.07891864
150	0x3f19bbd1	0.6005221
151	0x3ef372f5	0.47548643
152	0x3e800d07	0.2500994
153	0x3e09cd3f	0.13457201
154	0x3ef5415c	0.47901428
155	0xbee3dcc7	-0.44504377
156	0xbee393be	-0.44448656
157	0x3dd50042	0.1040044
158	0x3e35798e	0.1772215
159	0x3ea5989d	0.32342997
160	0x3e02f9c1	0.12790586
161	0x3bf6e54d	0.007534659
162	0x3e942313	0.2893301
163	0x3efb75b3	0.49113235
164	0xbf348e56	-0.7052969
165	0xbded8949	-0.11598451
166	0xbedaa6f6	-0.42705506
167	0x3f834770	1.0256176
168	0xbe153517	-0.14571033
169	0xbea21f95	-0.3166472
170	0xbe8e190f	-0.27753493
171	0x3e84ae1d	0.25914088
172	0x3db33bd4	0.08751646
173	0xbea1abff	-0.31576535
174	0xbdad2114	-0.08453575
175	0x3d8a9a44	0.06767705
176	0x3e0c03b7	0.13673292
177	0xbd6090d5	-0.054825623
178	0xbe6b2401	-0.22962953
179	0xbe213478	-0.15742671
180	0x3ed1de12	0.4098974
181	0xbe37c895	-0.1794761
182	0xc0261ced	-2.5955155
183	0xbd68d0ee	-0.056839876
184	0xbca4c3e0	-0.020112932
185	0x3dacb2f9	0.08432574
186	0xbef111d0	-0.47083902
187	0xbeff1787	-0.49822637
188	0x3e6fe5c1	0.23427488
189	0x3e33a182	0.17542079
190	0x3e2b1133	0.1670578
191	0x3d497aff	0.049189564
192	0x3deabd3f	0.11461877
193	0x3d10d381	0.035357956
194	0xbdb2c0c3	-0.08728173
195	0x3c9fdd61	0.019514741
196	0xbea213f6	-0.31655854
197	0xbe55023c	-0.20801634
198	0xbfca61b8	-1.5811071
199	0xbf14ee3e	-0.5817603
200	0xbdb4fc74	-0.08837214
201	0x3e1bc9c2	0.15213683
202	0xbf05e874	-0.5230782
203	0xbebdb74d	-0.3705391
204	0x3eb1dc28	0.34738278
205	0x3ecbd057	0.39807388
206	0x3f1f7be6	0.6229843
207	0x3f7c8b45	0.9865001
208	0x3df57998	0.11986083
209	0xbe9344fc	-0.28763568
210	0xbdbc1532	-0.0918373
211	0xbd816070	-0.06317222
212	0x3eb8f097	0.36121055
213	0xbefc8e02	-0.49327093
214	0xbff40c56	-1.9066265
215	0x3f93f209	1.1558238
216	0xbcf3416f	-0.029694287
217	0x3e857773	0.26067695
218	0x3e69ab15	0.22819169
219	0xbe85dd6e	-0.261455
220	0xbd351411	-0.04420859
221	0xbf56aebe	-0.83860385
222	0xbd22201f	-0.039581414
223	0xbe293703	-0.16524892
224	0x3de1f74b	0.110334955
225	0x3e5e448a	0.21705833
226	0xbe84a226	-0.2590496
227	0x3f0d3740	0.5516243
228	0xbe860e81	-0.2618294
229	0xbec2e08b	-0.38061938
230	0xbf501c41	-0.8129311
231	0x3ecf565b	0.40495571
232	0xbdc62f12	-0.09676947
233	0x3db10b9f	0.08644795
234	0xbcaa771a	-0.020808745
235	0xbeac684f	-0.3367333
236	0x3eaab2b7	0.33339474
237	0xbec453a3	-0.3834506
238	0xbe8e5362	-0.2779799
239	0x3e87113a	0.2638033
240	0xbe8f342d	-0.27969494
241	0xbe9710ef	-0.29505107
242	0xbdacf0b0	-0.08444345
243	0xbea45a51	-0.32100156
244	0x3c23ce20	0.0099978745
245	0x3d889e3c	0.06670806
246	0x3e9b1309	0.3028796
247	0x3c6c3920	0.014417917
248	0xbdcd03b3	-0.10010471
249	0x3ed18f32	0.40929562
250	0xbde44a64	-0.111470014
251	0xbe69e56c	-0.22841424
252	0xbf46034b	-0.77348775
253	0x3eea8aed	0.45809117
254	0x3ebb695f	0.3660383
255	0xbe65c87f	-0.22439764

fc1.bias f4 [128]
0	0x3ef1aa00	0.47200012
1	0xbf779a35	-0.96719676
2	0x3e5dd606	0.21663675
3	0xbe944032	-0.28955227
4	0x3fc394ac	1.5279746
5	0xbdbb67df	-0.09150671
6	0x3e1b2dcb	0.15154187
7	0xbfdf749b	-1.745746
8	0x3f8c091c	1.094028
9	0xc035eb45	-2.8424847
10	0xbf700e42	-0.93771756
11	0x3f2755ab	0.65365094
12	0x3fcaa091	1.5830251
13	0xbef8a994	-0.48566878
14	0xbee04e35	-0.43809667
15	0x3fd0bcbf	1.6307601
16	0x3ed818c9	0.4220641
17	0xbcc78df4	-0.02435968
18	0xbe0663e6	-0.13124046
19	0xbf928e40	-1.1449661
20	0xbeee12f4	-0.46498835
21	0xbcd80f50	-0.02637449
22	0x3fd9f999	1.7029296
23	0xbf64e18d	-0.89406663
24	0xbf78da90	-0.972085
25	0x3f9fdc86	1.2489173
26	0xbd80648d	-0.062691785
27	0xbf0f1eca	-0.55906355
28	0x3f7b6cb9	0.9821277
29	0xbeaa8702	-0.33306128
30	0xbcf14460	-0.029451549
31	0x3fc9993a	1.5749886
32	0xbf2bef16	-0.6716169
33	0x3ea1f1eb	0.3162988
34	0x4009adb1	2.1512263
35	0xbe954555	-0.2915446
36	0x3d889527	0.066690736
37	0x3ee05efe	0.43822473
38	0x3f7b2983	0.98110217
39	0xbe9238c6	-0.2855894
40	0x3eb35a58	0.35029864
41	0x3e41349a	0.18867722
42	0x3d8643d0	0.06555903
43	0xbeb26fae	-0.3485083
44	0x3e505ec6	0.20348653
45	0xbe08deba	-0.13366213
46	0xbdc7e8a5	-0.0976117
47	0xbdf0095e	-0.11720537
48	0x3e84e91b	0.25959095
49	0xbeb9249b	-0.3616074
50	0xc022ce39	-2.5438368
51	0xbee8da1e	-0.4547891
52	0x3c05ff29	0.008178511
53	0x3f1c9d79	0.61177784
54	0xbf5de5bd	-0.8667868
55	0xbe0d8f74	-0.13824254
56	0x3fbd9233	1.4810241
57	0xbf6bf207	-0.9216618
58	0xbe6d1064	-0.23150784
59	0x3e0ce43d	0.13758941
60	0xbf9d40b3	-1.228537
61	0xbefd21d9	-0.49439886
62	0xbdeb6a3f	-0.11494874
63	0x400038a3	2.0034568
64	0x3f3c0091	0.73438364
65	0xbf6ba9ca	-0.9205595
66	0x3e6bbb20	0.23020601
67	0x3e181a6a	0.14853826
68	0xbf8199a8	-1.0125017
69	0x3da9edec	0.08297333
70	0xbefc0370	-0.49221373
71	0x3eff0f20	0.49816227
72	0x402c7e30	2.6952019
73	0xbe5add4d	-0.21373482
74	0x3f5f7994	0.8729489
75	0xbd85feb5	-0.06542722
76	0xc00be00d	-2.18555
77	0x400f1e58	2.236227
78	0x3e8effbe	0.2792949
79	0x3f82a4ca	1.020654
80	0x3fb25650	1.393259
81	0xc0397b5c	-2.8981543
82	0x3e4ebc2d	0.20188971
83	0xc021243f	-2.5178373
84	0x3eccde20	0.40013218
85	0x403a43b2	2.9103818
86	0x3f045cbd	0.5170401
87	0xbf86d3aa	-1.0533345
88	0xc01bd19c	-2.4346685
89	0x3dc08cc0	0.09401846
90	0x3eb422a9	0.35182694
91	0x403102ca	2.7657952
92	0xbe3ea641	-0.18618108
93	0x3caa9609	0.020823495
94	0x3ef6e604	0.48222363
95	0xc0010b46	-2.016313
96	0xbd392ae8	-0.045206934
97	0xc0152b6d	-2.3307755
98	0xbf909287	-1.1294717
99	0x3e7b527a	0.24543181
100	0x3d511809	0.051048312
101	0xbe408533	-0.18800811
102	0x4015c10d	2.339908
103	0x3ead4ead	0.33849087
104	0xbe3a38b4	-0.18185693
105	0x3cdbcbf0	0.026830643
106	0xc02463f2	-2.5686002
107	0x3d7889d0	0.060678303
108	0xc02775cf	-2.6165655
109	0x3e0b5ab0	0.13608813
110	0x3e1df634	0.1542595
111	0x3de06490	0.10956681
112	0xc01e4af2	-2.4733243
113	0x401ca955	2.4478352
114	0x3ff59002	1.9184573
115	0xbe0b0d06	-0.13579187
116	0x3e10e2fa	0.14149085
117	0xbe5299ad	-0.20566435
118	0x3e91e1d4	0.28492606
119	0xbe8189ea	-0.25300533
120	0xbeacc59b	-0.3374451
121	0xc01110b0	-2.2666435
122	0x3ed1d1ca	0.4098037
123	0xbeec618a	-0.46168166
124	0xbf0331d9	-0.51247936
125	0xbd9fc30a	-0.078008726
126	0xc01e60ff	-2.4746702
127	0xbe88741e	-0.2665109

fc2.weight f4 [128, 128]
0	0x3d23592d	0.039879967
1	0x3c9862b7	0.018601758
2	0x3aad9cc0	0.0013245568
3	0x3e126826	0.14297542
4	0x3ba3a2a3	0.004993753
5	0x3e712091	0.2354758
6	0xbdb1fff1	-0.08691395
7	0xbe651037	-0.22369467
8	0xbe12510b	-0.14288728
9	0x3d653157	0.055955257
10	0x3d57a98a	0.05265192
11	0x3e0c7375	0.13715918
12	0x3d937262	0.07199551
13	0x3e29d632	0.16585615
14	0x3d5fbc71	0.05462307
15	0x3f16be37	0.58883995
16	0xbdaafc8b	-0.0834895
17	0xbe943ba4	-0.28951752
18	0x3d3a6eb8	0.045515746
19	0x3e94c99c	0.29060066
20	0x3e803e57	0.25047562
21	0xbd839f9b	-0.06426927
22	0xbdacfa52	-0.08446182
23	0xbdf1e86a	-0.118119076
24	0x3ddf761a	0.10911198
25	0xbe2b485c	-0.16726822
26	0x3e312d38	0.17302406
27	0x3f09507f	0.5363845
28	0x3e8af656	0.27141064
29	0x3d5503ba	0.052005507
30	0x3d71da5e	0.05904614
31	0xbe7dfb73	-0.24802952
32	0x3cd76fb8	0.026298389
33	0xbd462df7	-0.04838368
34	0x3ed4fdeb	0.41599974
35	0x3d988249	0.07446725
36	0x3e08dd10	0.13365579
37	0xbd886ad8	-0.06661004
38	0x3d05767f	0.03258371
39	0x3dad6b3d	0.0846772
40	0xbd6076cd	-0.054800797
41	0xbd1396a9	-0.036032353
42	0xbce58618	-0.028018042
43	0xbdd72173	-0.10504427
44	0x3d9ee0e1	0.07757736
45	0xbba0a8a6	-0.004902917
46	0xbc85c19c	-0.016327672
47	0xbd432994	-0.047647074
48	0x3dd8112b	0.105501495
49	0xbdffee92	-0.124966756
50	0x3e44bdf2	0.19213083
51	0xbe9966fb	-0.2996138
52	0x3dee44f4	0.116342455
53	0x3c37725a	0.011196697
54	0xbdd52180	-0.1040678
55	0x3c6ac6a8	0.01432959
56	0x3d0d65f5	0.034521062
57	0x3da2fba6	0.079581544
58	0xbe9ceaee	-0.30647987
59	0xbddabefd	-0.106809594
60	0x3e2229e2	0.1583629
61	0xbe40a0ed	-0.18811388
62	0x3d98919a	0.07449646
63	0x3e363537	0.17793737
64	0xbc93c8d2	-0.018040095
65	0x3e673c01	0.22581483
66	0x3cb719c4	0.022351153
67	0xbd4df69f	-0.050284024
68	0xbd0ba055	-0.03408845
69	0x3ca4b5a4	0.020106144
70	0xbdee1c2c	-0.11626467
71	0x3dab45a0	0.08362889
72	0xbe8c76c4	-0.2743436
73	0xbc5678c1	-0.013090313
74	0x3d5d698f	0.054055747
75	0x3ee6473c	0.44976223
76	0xbe683874	-0.22677785
77	0xbdcece72	-0.1009797
78	0x3e873809	0.2640994
79	0x3ed443de	0.4145803
80	0x3e184856	0.14871344
81	0xbede749f	-0.4344835
82	0xbe2012b1	-0.1563213
83	0xbe6cd91c	-0.23129696
84	0xbe05465b	-0.1301512
85	0x3e2fc323	0.17164283
86	0xbd68ac5f	-0.05680501
87	0xbab6e2f5	-0.0013953137
88	0xbeefb06d	-0.4681429
89	0x3cfb02ec	0.030641042
90	0x3da4b6c9	0.08042676
91	0x3f0c1f21	0.54735
92	0x3e1d51e5	0.15363272
93	0x3e6c880e	0.23098776
94	0x3e1cab49	0.15299715
95	0xbdf3dc2f	-0.11907231
96	0xbd2e7f6d	-0.04260199
97	0x3ef6c1ae	0.4819464
98	0x3c6565ba	0.014001304
99	0x3c2e04d8	0.010621272
100	0xbd295ebf	-0.041350123
101	0xbd1d29bf	-0.03836989
102	0x3ec4c208	0.38429284
103	0x3cbf6dfc	0.023367874
104	0xba4c75ba	-0.0007799525
105	0x3dadab65	0.084799565
106	0x3d45dbcc	0.048305318
107	0xbe1d1651	-0.15340544
108	0xbed72c95	-0.420262
109	0x3ebc708b	0.36804613
110	0xbdf58cdd	-0.11989758
111	0x3e5b44b2	0.21412924
112	0xbde480ea	-0.11157401
113	0x3ed6b04d	0.41931382
114	0xbdd66ce4	-0.10469988
115	0x3eb1ec33	0.34750518
116	0x3c785ae0	0.015158385
117	0xbd167810	-0.036735594
118	0x39147145	0.00014156576
119	0x3ccb81c9	0.02484216
120	0xbd912855	-0.07087771
121	0x3c8be91a	0.017078925
122	0x3e2feceb	0.17180221
123	0x3d53b982	0.051690586
124	0xbe5c9bfe	-0.21543881
125	0x3e6a16c6	0.2286025
126	0xbf186c79	-0.59540516
127	0x3d1a362a	0.03764931
128	0xbd5106c9	-0.05103186
129	0xbd63c4d9	-0.05560765
130	0x3d657a96	0.05602511
131	0x3c2ccc74	0.010546792
132	0xbd37cd49	-0.04487351
133	0x3d4e5733	0.05037613
134	0xbdb529f6	-0.08845894
135	0xbce9ef81	-0.028556587
136	0x3cb02804	0.021503456
137	0x3d4302a1	0.04760993
138	0xbd3e936b	-0.046527307
139	0x3c96c5d5	0.01840488
140	0xbdd4da99	-0.10393257
141	0xbdbdadf9	-0.09261698
142	0xbd1cd2e5	-0.038287062
143	0xbdcc6db0	-0.09981859
144	0x3d85e629	0.0653804
145	0x3da6a299	0.08136482
146	0xba2d29fa	-0.0006605681
147	0xbd935e97	-0.07195776
148	0x3d5ef92b	0.054436844
149	0x3ac6fdc0	0.0015181825
150	0xbd31bdd0	-0.04339391
151	0xbddb05ab	-0.106944405
152	0x3d5c25c5	0.053746957
153	0xbd97f311	-0.07419408
154	0xbd9ffe67	-0.07812195
155	0xba815653	-0.0009867646
156	0x3b3c9e96	0.0028781048
157	0x3cb42bc0	0.021993518
158	0x3beb45c0	0.0071799457
159	0x3cd65bdb	0.026166847
160	0x3d842c79	0.06453795
161	0x39d4d6d1	0.00040595842
162	0xbda0dec0	-0.07854986
163	0xbd38de89	-0.0451341
164	0x3d5e8814	0.054328993
165	0x3d45c22a	0.048280872
166	0x3d45a88d	0.048256446
167	0xbd5c3951	-0.0537656
168	0xbcf1c4a5	-0.029512713
169	0x3d756f8a	0.059920825
170	0x3d1a347a	0.0376477
171	0xbdd5b787	-0.10435396
172	0xbcdf223a	-0.027238
173	0x3c867adb	0.016416004
174	0x3daaa79f	0.083327524
175	0xbc8c1234	-0.017098524
176	0xbc9f101b	-0.01941686
177	0xbd455891	-0.048180167
178	0xbd02b77a	-0.031913258
179	0x3d657108	0.056015998
180	0x3c93bba7	0.018033816
181	0xbd150b76	-0.036387883
182	0x3d51a3c0	0.051181555
183	0xbc6f8578	-0.014619224
184	0xbd0d4c87	-0.03449681
185	0xbcb4351f	-0.021997986
186	0x3d3b8ec5	0.045790453
187	0xb9eb9829	-0.0004493606
188	0x3d05d593	0.032674383
189	0xbd8fd904	-0.07023814
190	0xbd4bd9c3	-0.04976822
191	0xbbfbf899	-0.0076895473
192	0xbc3b9a02	-0.011450293
193	0xbd7a77cb	-0.0611494
194	0x3cf71984	0.030163534
195	0x3c65efb0	0.014034197
196	0xbc4201e6	-0.011841273
197	0x3d9b76d7	0.07591026
198	0x3cf8cb05	0.030370245
199	0x3c221b87	0.009894258
200	0xbdcbd26e	-0.09952246
201	0xbdbefb7a	-0.09325309
202	0x3cec9959	0.028881716
203	0x3cb6483c	0.02225124
204	0xbd9cf7ea	-0.07664473
205	0xbdee82ce	-0.11646043
206	0x3b17c9a7	0.0023160966
207	0x3d4a0e89	0.049330268
208	0xbd135941	-0.03597379
209	0xbdb09ee1	-0.08624054
210	0xbda5699e	-0.080767855
211	0xbccbcb23	-0.024877137
212	0x3d668e45	0.056288023
213	0xbdc75fe0	-0.097350836
214	0xbd2e4fb0	-0.042556465
215	0x3ce7d532	0.028299902
216	0x3d4bc58f	0.049748953
217	0x3d9395cd	0.072063066
218	0x3d965e71	0.07342232
219	0xbdde68fa	-0.108598664
220	0xbd21e132	-0.039521404
221	0x3c3f7673	0.011685955
222	0x3d42d2ea	0.047564425
223	0xbde9d8d3	-0.11418309
224	0xbd2e9838	-0.042625636
225	0x3cc298ed	0.023754561
226	0xbd4b3400	-0.049610138
227	0xbc9c7390	-0.019098073
228	0xbd8f131a	-0.06986065
229	0x3d6e338a	0.05815462
230	0xbd499bb2	-0.04922075
231	0xbbddcd20	-0.0067688376
232	0xbc9cb743	-0.019130355
233	0x3d8569bb	0.06514307
234	0xbdac924d	-0.08426342
235	0xbc137935	-0.009001066
236	0x3bfb6e7f	0.0076730843
237	0xbd7f3f97	-0.062316503
238	0xbb92f34d	-0.00448457
239	0x3d2a8add	0.041636337
240	0xbc407496	-0.011746546
241	0xbde25565	-0.11051444
242	0xbd96191c	-0.07329008
243	0xbddaf951	-0.106920846
244	0xbcb8d9c4	-0.022564776
245	0xbd85fd61	-0.06542469
246	0xbd7f0bac	-0.06226699
247	0xbd1f614f	-0.03891116
248	0xbd6720c8	-0.056427747
249	0x3cd4c3a6	0.025972199
250	0xbd4edb54	-0.050502136
251	0xbd9ff842	-0.07811023
252	0x3c40d60c	0.011769783
253	0xbd13c6f4	-0.03607841
254	0xbde33980	-0.11094952
255	0x3d42582a	0.04744736

fc2.bias f4 [128]
0	0x3f1175c8	0.56820345
1	0xbbaed975	-0.0053359815
2	0x3e5d1ef8	0.21593845
3	0xbe2ee5e7	-0.17079888
4	0x3e15d020	0.14630175
5	0x3efcbb66	0.49361724
6	0xbd7c09bc	-0.06153272
7	0xbd49f761	-0.049308185
8	0xbe845bbc	-0.25851238
9	0x3e585f3f	0.21130084
10	0xbfc88ecd	-1.5668579
11	0x3f186891	0.59534556
12	0xbde36da3	-0.11104896
13	0x3e7b6325	0.2454954
14	0x3ecd4b5e	0.40096563
15	0xbe25f619	-0.1620716
16	0xbd0fcecd	-0.03510933
17	0xbdaf6d33	-0.0856575
18	0xbdc23aad	-0.09483848
19	0xc01bb7d8	-2.433096
20	0x3f76c090	0.9638758
21	0x3ec00535	0.37503973
22	0x3cc0f955	0.02355639
23	0x3f3113b7	0.6917071
24	0x3f4e3354	0.8054707
25	0xbe061583	-0.13094144
26	0xbe384304	-0.17994314
27	0x3e3096ee	0.17245075
28	0x3eb144da	0.34622842
29	0xbf844baa	-1.0335591
30	0xbecb7b08	-0.39742303
31	0xbce1217f	-0.027481792
32	0x3f9df19f	1.2339362
33	0xbebfc715	-0.37456575
34	0x3cb3158d	0.021860862
35	0xbdad2c83	-0.084557556
36	0x3e9b5ce1	0.30344298
37	0x3d043acb	0.03228263
38	0xbdd42af3	-0.103597544
39	0xbefff165	-0.49988857
40	0xbc957e6b	-0.018248757
41	0xc01b2066	-2.4238524
42	0xbd041406	-0.03224566
43	0xbcf79174	-0.030220725
44	0xc02333ab	-2.5500286
45	0xbda541f2	-0.08069219
46	0xbd5c170e	-0.053732924
47	0x3d59e5b4	0.053197578
48	0xbd60609c	-0.054779634
49	0xbd777ee4	-0.060423747
50	0xbab27b3f	-0.0013617052
51	0x3f2af1c2	0.66775143
52	0xbdbefc5e	-0.09325479
53	0xbdd878ef	-0.10569941
54	0x3f92bbaa	1.146352
55	0x3d825251	0.06363357
56	0x3d8a80b7	0.06762832
57	0xbe0f4f35	-0.13995059
58	0xbd80fae2	-0.06297852
59	0x3d27eb84	0.04099609
60	0x3e9eaaee	0.30989784
61	0xbd012097	-0.03152522
62	0x3f2e0670	0.6797857
63	0x3f82827f	1.0196074
64	0xc01def6b	-2.467738
65	0x3b7dcb9d	0.00387261
66	0xbdbbf973	-0.09178438
67	0x3d9870d1	0.07443393
68	0x3d540c87	0.05176976
69	0x3f7a7305	0.97831756
70	0xbdafd57f	-0.08585643
71	0xbf1f1c4e	-0.62152565
72	0xbd812b7c	-0.06307122
73	0x3f9ca1ec	1.2236915
74	0x3d0a5138	0.033768862
75	0xbd1c136f	-0.03810447
76	0xbd9df2d8	-0.077123344
77	0x3f4beae1	0.7965527
78	0x3e09c3cf	0.13453601
79	0xbe18795d	-0.14890046
80	0xbdc4f15c	-0.09616348
81	0xbfb244c1	-1.3927232
82	0xbe081a37	-0.1329125
83	0x3d9106a6	0.07081346
84	0xc026d604	-2.6068125
85	0x3d90b70a	0.07066162
86	0xbfbe0791	-1.4846059
87	0x3e124290	0.14283204
88	0x3ed3d2c9	0.41371754
89	0x3e020415	0.1269687
90	0x3f35ed4a	0.710652
91	0xbc083bb6	-0.008315017
92	0xbd8c0b41	-0.06838084
93	0xbdaeaaae	-0.08528648
94	0xbe44501a	-0.19171181
95	0xbda812e2	-0.082067266
96	0x3c5474ef	0.012967332
97	0xbdd9a143	-0.10626461
98	0xbd4d6fae	-0.050155334
99	0x3fd49c97	1.6610287
100	0x3d90a480	0.07062626
101	0x3d229133	0.039689254
102	0xbd1bce00	-0.038038254
103	0xbe0b9a32	-0.1363304
104	0x3d37d4f9	0.04488084
105	0xbcb3e7e5	-0.021961162
106	0xbc866e5b	-0.016410043
107	0xbd7bacd0	-0.061444104
108	0x3d84db05	0.06487087
109	0x3e6df5b1	0.23238255
110	0xc005bb5d	-2.0895607
111	0x3c960ef8	0.018317685
112	0x3ced8925	0.02899606
113	0xbea70abd	-0.3262538
114	0xbdab2161	-0.08355976
115	0xbe766d7e	-0.24065205
116	0xbda6540b	-0.08121499
117	0xbd8bcfe0	-0.068267584
118	0x3e811cf5	0.25217405
119	0xbcfcb113	-0.030846154
120	0xbf13bf7c	-0.57714057
121	0xbcfb4dfd	-0.030676836
122	0xbdfc35d4	-0.123149544
123	0x3a8cf5bf	0.001075439
124	0xc0242880	-2.564972
125	0xbd5e7098	-0.054306597
126	0x401d6b6d	2.4596817
127	0xbd8b5b36	-0.068045065

fc3.weight f4 [64, 128]
0	0x3e378a6e	0.179239
1	0xbd60b8af	-0.054863628
2	0xbf5aeacb	-0.85514516
3	0xbf15260c	-0.5826118
4	0xbed867bc	-0.42266643
5	0xbf49bc06	-0.78802526
6	0xbd588606	-0.05286219
7	0x3d5d4b43	0.054026853
8	0xbdbf04e1	-0.093271025
9	0xbcb17cac	-0.021665893
10	0xbe5b8bac	-0.2144
11	0x3ecd8aa1	0.40144828
12	0xbe5ea911	-0.21744181
13	0xbeb453e8	-0.35220265
14	0x3ec7a8b6	0.38995904
15	0x3d87942e	0.0662006
16	0xbe7a9f4a	-0.24474826
17	0x3d2e5627	0.04256263
18	0xbc25e2c0	-0.010124862
19	0xbe19d5b9	-0.15022935
20	0x3e8078ba	0.25092107
21	0xbe9dccd7	-0.30820343
22	0x3d9f5b08	0.07781035
23	0x3f0eb0eb	0.55738705
24	0x3db6f0ac	0.08932623
25	0x3c8107de	0.015750822
26	0xbde2839a	-0.11060257
27	0xbe9db9be	-0.30805773
28	0xbf814231	-1.0098325
29	0xbc5839d2	-0.013197379
30	0xbf1217fb	-0.5706784
31	0x3d806168	0.06268579
32	0xbd83f2b4	-0.06442776
33	0xbe1e2ed0	-0.15447545
34	0xbd9e9a2e	-0.07744251
35	0xba3b6e2f	-0.00071499025
36	0xbeb3862c	-0.35063303
37	0xbf41be3a	-0.7568089
38	0x3c6807ca	0.014162013
39	0xbedf5901	-0.43622592
40	0xbd67948e	-0.056538157
41	0x3f0900b6	0.5351671
42	0x3c2f265d	0.010690299
43	0x3d0d43f2	0.034488626
44	0x3e557f84	0.20849425
45	0x3d823c71	0.063591845
46	0xbe18a500	-0.14906693
47	0xbcceb81b	-0.025234273
48	0xbd8e7c77	-0.069573335
49	0xbd25edb5	-0.0405099
50	0x3f01bf31	0.5068236
51	0x3d93036e	0.071783885
52	0xbceecc84	-0.029150255
53	0x3c3655cc	0.011128854
54	0x3e7f88c7	0.2495452
55	0x3d302846	0.043007158
56	0xbc8c5e81	-0.017134907
57	0x3d6f5322	0.05842889
58	0x3c0e1c44	0.008673731
59	0x3c941077	0.018074257
60	0xbe89c7ca	-0.2691024
61	0x3d5b42e6	0.053530596
62	0xbee19804	-0.4406129
63	0xbe911284	-0.2833444
64	0xbe149a98	-0.14512098
65	0xbd380cc4	-0.04493405
66	0x3eec4cde	0.46152395
67	0xbea900a2	-0.33008295
68	0xbc6186bd	-0.013765034
69	0xbe28af32	-0.16473082
70	0x3dbd8d7c	0.09255502
71	0x3e87bf15	0.26512972
72	0xbda30aef	-0.0796107
73	0x3e330e9d	0.17486043
74	0xbc085974	-0.008322109
75	0x3c241964	0.010015819
76	0x3d2599fe	0.04043006
77	0xbe764b80	-0.24052238
78	0xbec7db7e	-0.39034647
79	0xbf10d9ae	-0.5658215
80	0xbcf75f51	-0.030196818
81	0x3c205e54	0.009788115
82	0xbdb81dee	-0.08990084
83	0xbef9004b	-0.48633036
84	0x3dba6323	0.0910094
85	0x3e14690b	0.14493196
86	0x3e8b6f6c	0.27233446
87	0xbf22c4cc	-0.6358154
88	0x3f1dfc79	0.6171337
89	0xbcafc7c2	-0.021457557
90	0x3d27f7fb	0.041007977
91	0xbd8cb4ac	-0.06870398
92	0x3ce2f048	0.027702466
93	0xbe8bb945	-0.27289787
94	0x3d6b8c9e	0.05750715
95	0xbe55f0f2	-0.20892695
96	0xbc3985b0	-0.0113233775
97	0xbd40aac3	-0.04703785
98	0xbd36613c	-0.044526324
99	0x3d00d5dc	0.031453952
100	0x3eccae89	0.3997691
101	0x3a72dea7	0.0009264745
102	0xbe21d358	-0.15803277
103	0x3ec92e58	0.3929317
104	0x3d7d54e3	0.061848532
105	0xbd7c7930	-0.06163901
106	0xbbd93a44	-0.0066292603
107	0xbd83fa94	-0.06444278
108	0x3d096f43	0.033553373
109	0x3d9a5f95	0.07537762
110	0xbf211850	-0.6292772
111	0xbcbff4b3	-0.023432111
112	0x3e665d2d	0.22496481
113	0x3dde3f82	0.10851957
114	0x3d7e3076	0.062057935
115	0x3d8a255d	0.06745408
116	0x3cc35ea5	0.023848841
117	0xbb70d694	-0.0036748992
118	0xbe498db0	-0.19682956
119	0x3c55cf22	0.013049873
120	0x3e143ee6	0.14477119
121	0xbd06a89b	-0.03287564
122	0xbcc598a3	-0.024120634
123	0xbda531e3	-0.08066156
124	0xbe043bf1	-0.12913491
125	0x3b456f01	0.0030125978
126	0xbe8d0a44	-0.27546895
127	0x3b8f4aed	0.0043729455
128	0x3e94cf62	0.2906447
129	0x3c9d581d	0.019207055
130	0x3e8c782b	0.2743543
131	0x3e9ec1f4	0.3100735
132	0xbe5470f8	-0.20746219
133	0x3f207af7	0.6268763
134	0xbd2a53c3	-0.041583788
135	0x3db83d67	0.089960866
136	0x3f596e34	0.8493378
137	0x3edec77e	0.43511575
138	0xbe650130	-0.22363734
139	0xbeeba3da	-0.46023446
140	0xbf016808	-0.50549364
141	0x3e302d22	0.17204717
142	0x3f16a024	0.58838105
143	0x3d9b2164	0.07574728
144	0x3f3b8158	0.7324424
145	0x3c97d4fe	0.01853418
146	0x3db43fd3	0.08801236
147	0xbe403a59	-0.18772258
148	0xbebb65b1	-0.36601022
149	0x3f08a50e	0.53376853
150	0x3d66ef75	0.056380708
151	0xbe583969	-0.2111565
152	0x3f303045	0.68823653
153	0xbc49ddc7	-0.012320942
154	0x3ee53cf1	0.44773057
155	0x3e305848	0.17221177
156	0x3e90bc7e	0.28268808
157	0xbe8827d6	-0.26592892
158	0x3ee8a9b0	0.4544196
159	0x3c9fe4f7	0.019518359
160	0xbe3114aa	-0.17293039
161	0xbea32205	-0.31861892
162	0xbd8eba70	-0.06969154
163	0xbe325bfd	-0.17417903
164	0x3eeee25e	0.4665708
165	0xbeb6fb14	-0.35738432
166	0x3dd1dde2	0.10247399
167	0xbf8bb28c	-1.0913863
168	0xbde2d04b	-0.11074885
169	0xbf67187f	-0.90271753
170	0xbd8944d2	-0.067025796
171	0x3d32e824	0.043678418
172	0xbf63169a	-0.8870636
173	0xbd9962b2	-0.07489528
174	0xbc344a65	-0.011004065
175	0x3cecc2be	0.028901454
176	0x3c986e03	0.018607145
177	0x3b1f5ae1	0.0024315643
178	0x3e64ef84	0.22356993
179	0x3f4a7635	0.7908662
180	0x3d1b0850	0.037849724
181	0xbd908ec2	-0.07058479
182	0x3f892074	1.0713029
183	0x3b131c60	0.0022447333
184	0x3f87b4ff	1.0602111
185	0x3d909583	0.07059767
186	0x3d8dd275	0.06924907
187	0xbd9050ae	-0.070466384
188	0x3ee1194f	0.4396462
189	0x3c6efac1	0.014586152
190	0x3e72fe69	0.23729862
191	0x3f0d942f	0.55304235
192	0xc016c7b1	-2.3559382
193	0xbe019bdd	-0.12657113
194	0x3ebc42db	0.36769757
195	0x3eaed888	0.34149575
196	0x3c9c7cf3	0.01910255
197	0x3df43948	0.11924988
198	0x3d6bce99	0.057570074
199	0xbf1b3fbf	-0.60644144
200	0x3d840d1a	0.064478114
201	0x3db981e5	0.090579785
202	0xbbed4eb1	-0.0072420468
203	0x3cf838f8	0.030300602
204	0x3cab212b	0.02088984
205	0xbf72c5f6	-0.94833314
206	0x3ef46291	0.4773145
207	0x3e4c9bfa	0.19981375
208	0x3d3366ac	0.043799087
209	0x3d2a0e4f	0.041517552
210	0xbd19a30c	-0.03750901
211	0x3f5464dd	0.82966405
212	0xc014c22e	-2.3243518
213	0x3d8c23ee	0.068427905
214	0x3dabf18a	0.08395679
215	0x3eff2ad3	0.4983736
216	0xbcb8edd7	-0.022574348
217	0x3d8bd1b5	0.06827108
218	0x3cb6e920	0.02232796
219	0xbc5e37de	-0.013563124
220	0xbb40e9ca	-0.0029436224
221	0x3e564aa2	0.20926908
222	0xbd96ba24	-0.07359722
223	0xbf133e9d	-0.57517415
224	0xbdec9345	-0.11551527
225	0x3d33b9c7	0.043878343
226	0xbc9e97e1	-0.01935953
227	0x3e1213cf	0.14265369
228	0x3d80e696	0.06293981
229	0x3d0dba55	0.03460153
230	0x3f1133d9	0.5671974
231	0xbb908fe5	-0.004411685
232	0x3d28a38d	0.0411716
233	0xbdcacee1	-0.0990274
234	0xbe55e8c7	-0.20889579
235	0xbd44894c	-0.0479825
236	0x3d5a02f7	0.053225484
237	0x3f0501a4	0.5195563
238	0x3f0a8a91	0.54117686
239	0xbc4648f0	-0.012102351
240	0xbf68d7dc	-0.90954375
241	0x3dd222f6	0.102605745
242	0x3cc83bb0	0.024442524
243	0xbe220147	-0.158208
244	0x3d2835a2	0.041066773
245	0xbddd698d	-0.10811148
246	0x3e1d365f	0.15352772
247	0xbd522b83	-0.051311027
248	0x3f14d4ee	0.58137405
249	0xbcf33888	-0.029690042
250	0xbc73dd75	-0.014884342
251	0x3d13e7ed	0.036109854
252	0x3b879ce3	0.0041385754
253	0x3c6ea831	0.014566467
254	0xbdff09d1	-0.12453044
255	0xbdb2d5a5	-0.08732156

fc3.bias f4 [64]
0	0x3f96e4a7	1.1788529
1	0x3f44aaa3	0.7682287
2	0x3f030a5a	0.5118767
3	0x3da4ab75	0.08040515
4	0xbe9bc023	-0.30420026
5	0xbdbaa8f2	-0.09114255
6	0x3f285526	0.65754926
7	0x3f0c9fb0	0.54931164
8	0xbf3daf5f	-0.7409572
9	0x3fbcad25	1.474034
10	0xbe12c63f	-0.14333437
11	0xbf0af070	-0.5427313
12	0x3e53fbac	0.20701474
13	0x3fdcf9da	1.7263749
14	0x3f123f68	0.57128
15	0x3de75401	0.11295319
16	0xbcbfc94e	-0.02341142
17	0x3e293c6c	0.16526955
18	0xbd635803	-0.055503856
19	0x3fd36afb	1.6517023
20	0x3f088bc8	0.5333829
21	0xbd6244cf	-0.055241402
22	0x3f7006e2	0.937605
23	0xc00290b7	-2.0400827
24	0xbf6f08df	-0.9337291
25	0x3f8abe38	1.08393
26	0xbef2efe1	-0.47448638
27	0x3f24bdfa	0.6435238
28	0xbe972151	-0.29517606
29	0x402ae36f	2.6701314
30	0xbff3da61	-1.9051019
31	0x3f8fecbc	1.1244121
32	0x3efd332a	0.49453098
33	0xbe399396	-0.18122706
34	0x3a5ce666	0.0008426666
35	0x3ea9d547	0.3317053
36	0xbf479188	-0.7795644
37	0x3ed9e354	0.4255625
38	0x3f91c151	1.138712
39	0xbf962836	-1.1731021
40	0x3f7042ce	0.93851936
41	0x3f9378b2	1.1521208
42	0xc00b4d3a	-2.1765885
43	0xbdd745aa	-0.10511334
44	0x3f576c3f	0.84149545
45	0x3b5d0e01	0.003373027
46	0xbdfa324c	-0.122166246
47	0xbe9e5349	-0.30922917
48	0xbf9f62b4	-1.2451997
49	0xc005dcf3	-2.0916107
50	0xbf45da3e	-0.77286136
51	0xbc96f6b9	-0.018428193
52	0x400f019d	2.2344735
53	0xbe911e1b	-0.2834328
54	0xbeaa5eac	-0.33275354
55	0x3fb9e571	1.4523145
56	0xbe375b8d	-0.17906018
57	0xbf7202de	-0.94535625
58	0xbe247ab4	-0.16062433
59	0xbf98b5a8	-1.1930437
60	0xbe46e808	-0.1942445
61	0x3fc310ec	1.5239539
62	0xbec85b25	-0.39132038
63	0xbddaa601	-0.10676194

out.weight f4 [4, 64]
0	0x3e99a82f	0.30011126
1	0xbeeeafbc	-0.4661845
2	0xbda76bab	-0.08174833
3	0xbe37a810	-0.17935205
4	0x3f9bee59	1.2182113
5	0xbf617d9e	-0.880823
6	0xbea13dc7	-0.31492445
7	0x3ef8f1cc	0.48621976
8	0x3b9123e2	0.0044293264
9	0xbee546b6	-0.4478051
10	0x3cd484b4	0.025942184
11	0xbdc47a21	-0.09593607
12	0x3e3ddf3d	0.1854219
13	0xbea5d7fb	-0.32391343
14	0x3de7d08a	0.113190725
15	0x3dae3581	0.08506299
16	0xbe53764f	-0.206506
17	0x3e8fd1af	0.28089663
18	0xbd2d60da	-0.042328693
19	0x3f263f09	0.64939934
20	0xbe2abdf5	-0.16674025
21	0xbf5f4b8c	-0.8722465
22	0x3f193440	0.5984535
23	0x3e24c03b	0.16088955
24	0xbed4b540	-0.41544533
25	0xbf0b1bd0	-0.54339314
26	0xbd72b326	-0.05925288
27	0x3b8c0aa8	0.0042737313
28	0xbe91b140	-0.28455544
29	0x3f20d6d1	0.62827784
30	0xbe94ba79	-0.29048517
31	0xbea3185a	-0.31854516
32	0x3f0c31ba	0.54763377
33	0x3f06f4a2	0.5271703
34	0xbda6a8c3	-0.081376575
35	0x3e5d85dd	0.21633096
36	0xbebb2b39	-0.36556414
37	0x3dcc860e	0.099865064
38	0xbe93438a	-0.28762466
39	0x3e8d1a14	0.2755896
40	0xbed2f36f	-0.4120135
41	0x3d176724	0.036963597
42	0xb9139c47	-0.0001407723
43	0x3d83a6d6	0.06428306
44	0x3efed6a9	0.49773148
45	0x3eaea254	0.34108222
46	0xbef4bfff	-0.4780273
47	0x3e33209b	0.17492907
48	0xbec6d392	-0.3883329
49	0x3d71922b	0.058977287
50	0xbdfd2d6b	-0.123621784
51	0x3d892667	0.06696778
52	0xbf304cb0	-0.68867016
53	0x3d8bd2fe	0.06827353
54	0x3d588a39	0.052866194
55	0xbe904148	-0.28174806
56	0xbe8902ca	-0.2675994
57	0xbd5aea92	-0.05344636
58	0x3da5ef45	0.08102278
59	0x3daa4b5f	0.08315157
60	0x3e0125a6	0.12612018
61	0x3f05a797	0.52208847
62	0x3ecf4c59	0.40487936
63	0xbea6c88a	-0.32574874
64	0x3f06ef7d	0.5270918
65	0xbf0e29cc	-0.55532527
66	0xbe8c1431	-0.27359155
67	0xbe75334e	-0.23945352
68	0x3efebc1f	0.497529
69	0xbf3b46f8	-0.73155165
70	0xbdd9929f	-0.10623669
71	0x3e3ed16d	0.18634577
72	0x3d804dfa	0.06264873
73	0xbeaccd0f	-0.33750197
74	0x3d42a192	0.047517367
75	0xbec23553	-0.37931308
76	0x3f29782d	0.66199
77	0xbe833d57	-0.25632736
78	0x3e3afe5c	0.18261093
79	0x3f14fe54	0.58200574
80	0x3ed38613	0.41313228
81	0xbecdb4fe	-0.4017715
82	0x3d270df4	0.04078479
83	0x3f3f80b3	0.74805754
84	0xbe915e37	-0.28392193
85	0xbeb01d63	-0.3439742
86	0xbea5e63f	-0.32402226
87	0x3e8604d5	0.26175562
88	0xbee1f2b8	-0.44130492
89	0xbf20c79c	-0.6280458
90	0x3e82e330	0.25563955
91	0x3e049a3a	0.12949458
92	0xbe3ebcc8	-0.18626702
93	0x3f41fd2e	0.75776947
94	0xbed54c42	-0.41659743
95	0xbe8682f5	-0.26271787
96	0x3d9609ba	0.07326074
97	0x3f0bfce5	0.5468276
98	0x3d5a98cc	0.053368375
99	0x3e9b7426	0.30362052
100	0xbeb11331	-0.34584954
101	0xbd8c6db2	-0.0685686
102	0xbf18411c	-0.5947435
103	0x3eacf852	0.33783203
104	0xbd943470	-0.07236564
105	0xbe7bca22	-0.24588826
106	0x3fb128a5	1.3840529
107	0x3d48e194	0.049043253
108	0x3f0c5911	0.54823405
109	0x3edf802f	0.43652484
110	0xbeb7059a	-0.3574646
111	0x3f696122	0.9116384
112	0xbee7c380	-0.45266342
113	0xbd8010d8	-0.06253213
114	0x3d96729c	0.07346079
115	0x3f0a16eb	0.5394122
116	0xbf1254a8	-0.57160425
117	0x3eb0de27	0.3454449
118	0xbd047c18	-0.032344908
119	0xbeabb248	-0.33534455
120	0x3e972204	0.2951814
121	0xbe042411	-0.12904383
122	0x3cf26448	0.029588833
123	0x3db4e8d4	0.08833471
124	0x3f011312	0.50419724
125	0x3f12213e	0.57081974
126	0x3f3df6d5	0.7420476
127	0xbea7c698	-0.32768703
128	0x3ecf6875	0.40509382
129	0xbef4853d	-0.47757903
130	0x3e6806e9	0.22658886
131	0xbf09e515	-0.53865176
132	0xbe39318c	-0.18085307
133	0xbee06f22	-0.43834788
134	0xbeac389b	-0.33636937
135	0x3e997751	0.29973844
136	0xbe215216	-0.1575397
137	0xbf3b70af	-0.73218817
138	0xbc5e48b5	-0.013567139
139	0xbe9cda63	-0.30635366
140	0x3f0c961c	0.5491655
141	0xbec9be90	-0.394032
142	0x3f3280de	0.69727886
143	0x3f00aa42	0.5025979
144	0xbf077cb3	-0.5292465
145	0xbecd1698	-0.400563
146	0x3cf4391b	0.029812386
147	0x3f525aa8	0.8216958
148	0xbe6c8b24	-0.23099953
149	0xbe2dfb58	-0.16990411
150	0x3f05d10b	0.522721
151	0xbeb65e94	-0.35619032
152	0xbeda8222	-0.42677408
153	0xbf0a2c3c	-0.53973746
154	0x3c66ad14	0.014079351
155	0x3ea4cbc8	0.32186723
156	0xbdf82d12	-0.121179715
157	0x3fc62104	1.5478826
158	0xbf273b1a	-0.65324557
159	0xbd67b6f9	-0.05657098
160	0x3e450aea	0.19242445
161	0x3ef20545	0.47269645
162	0xbc470099	-0.012146139
163	0x3eb117b4	0.34588397
164	0xbe7778ef	-0.24167226
165	0x3f712155	0.94191486
166	0xbf351188	-0.70729876
167	0x3f0666c2	0.52500546
168	0xbec84f0b	-0.39122805
169	0xc0053f34	-2.0819826
170	0xbd875f5d	-0.06609986
171	0xbcf15ebf	-0.029464124
172	0x3f389728	0.72105646
173	0xbd83bf49	-0.06432969
174	0xbec51877	-0.38495228
175	0x3f40cc35	0.75311595
176	0xbe95ac18	-0.2923286
177	0xbecf4d5a	-0.40488702
178	0xbe78db3c	-0.24302381
179	0xbcbfb0b6	-0.023399692
180	0x3f4b8b45	0.79509383
181	0xbf0f3d59	-0.55952984
182	0xbed026aa	-0.40654498
183	0xbe096a72	-0.13419512
184	0x3e72b91c	0.23703426
185	0xbecf3282	-0.40468222
186	0xbacf9a84	-0.0015838896
187	0x3ecb4014	0.39697325
188	0x3d7ee68c	0.062231585
189	0x3f208491	0.6270228
190	0x3f429c8c	0.7602012
191	0xbea5e556	-0.32401532
192	0x3e431804	0.1905213
193	0xbf091cf8	-0.5355983
194	0x3cfbac9f	0.03072196
195	0xbeae0586	-0.3398859
196	0x3f20de54	0.62839246
197	0xbf648d0e	-0.8927773
198	0xbda570e1	-0.080781706
199	0x3e958623	0.292039
200	0x3e814c7a	0.2525366
201	0xbf8712fa	-1.0552666
202	0x3d4ed6af	0.050497707
203	0xbde89b9f	-0.11357807
204	0x3e64e269	0.22351994
205	0xbf0fe210	-0.5620432
206	0x3f3b32bd	0.73124295
207	0x3ddc9e0a	0.10772331
208	0xbea19f7b	-0.31566986
209	0xbdb9c5dc	-0.09070942
210	0x3d65f892	0.05614526
211	0x3f452cec	0.7702167
212	0xbe8ff7cb	-0.2811874
213	0x3ec006af	0.375051
214	0x3f1afe67	0.6054444
215	0xbd1c361e	-0.038137548
216	0xbe8bc80e	-0.27301067
217	0xbf10fa66	-0.5663208
218	0x3e810385	0.25197998
219	0x3e2ba3d3	0.16761713
220	0xbd85f304	-0.06540492
221	0x3f5094a3	0.814768
222	0xbf472fa3	-0.7780706
223	0xbe1e2b37	-0.15446173
224	0x3ecc18c2	0.3986264
225	0x3f28f993	0.6600582
226	0x3d9bde75	0.0761079
227	0x3e6505be	0.22365472
228	0xbeac1f51	-0.33617643
229	0x3f9b884d	1.2150971
230	0xbec8f342	-0.3924809
231	0x3e85d448	0.2613852
232	0xbe9cc8a7	-0.30621836
233	0x3d6e8845	0.058235426
234	0x3f64a230	0.8930998
235	0x3d2a4704	0.041571632
236	0x3e9705a6	0.29496497
237	0x3e8f2a91	0.27962163
238	0xbf3c9c51	-0.7367602
239	0x3cbbdc60	0.022932231
240	0xbecaaf83	-0.3958703
241	0xbc635363	-0.013874861
242	0xbe377598	-0.17915952
243	0x3e8cf069	0.27527168
244	0xbf68afb7	-0.9089312
245	0xbe48a7a6	-0.19595203
246	0x3e33a8c5	0.17544849
247	0xbe7b0f2b	-0.24517505
248	0xbe5a05db	-0.21291296
249	0xbe20f01a	-0.15716591
250	0xbe015c29	-0.12632813
251	0x3ec4e9a9	0.3845952
252	0x3ea269e1	0.31721404
253	0x3f0d3e4b	0.55173177
254	0x3ee8029c	0.4531449
255	0xbef24d34	-0.47324526

out.bias f4 [4]
0	0x3e050602	0.12990573
1	0xbf020af2	-0.5079795
2	0x3fbfd973	1.4988235
3	0x3ecfcd70	0.40586424
